{"format": "graph-model", "generatedBy": "2.15.0", "convertedBy": "TensorFlow.js Converter v4.22.0", "signature": {"inputs": {"ts_input2:0": {"name": "ts_input2:0", "dtype": "DT_FLOAT", "tensorShape": {"dim": [{"size": "-1"}, {"size": "24"}, {"size": "18"}]}}, "img_input": {"name": "img_input:0", "dtype": "DT_FLOAT", "tensorShape": {"dim": [{"size": "-1"}, {"size": "224"}, {"size": "224"}, {"size": "3"}]}}, "ts_input1:0": {"name": "ts_input1:0", "dtype": "DT_FLOAT", "tensorShape": {"dim": [{"size": "-1"}, {"size": "24"}, {"size": "18"}]}}}, "outputs": {"ensemble_avg": {"name": "Identity:0", "dtype": "DT_FLOAT", "tensorShape": {"dim": [{"size": "-1"}, {"size": "3"}]}}}}, "modelTopology": {"node": [{"name": "StatefulPartitionedCall/cnn_forecast_ensemble/sequential/inception_v3/mixed0/concat/axis", "op": "Const", "attr": {"value": {"tensor": {"dtype": "DT_INT32", "tensorShape": {}}}, "dtype": {"type": "DT_INT32"}}}, {"name": "StatefulPartitionedCall/cnn_forecast_ensemble/sequential/inception_v3/mixed1/concat/axis", "op": "Const", "attr": {"value": {"tensor": {"dtype": "DT_INT32", "tensorShape": {}}}, "dtype": {"type": "DT_INT32"}}}, {"name": "StatefulPartitionedCall/cnn_forecast_ensemble/sequential/inception_v3/mixed2/concat/axis", "op": "Const", "attr": {"value": {"tensor": {"dtype": "DT_INT32", "tensorShape": {}}}, "dtype": {"type": "DT_INT32"}}}, {"name": "StatefulPartitionedCall/cnn_forecast_ensemble/sequential/inception_v3/mixed3/concat/axis", "op": "Const", "attr": {"value": {"tensor": {"dtype": "DT_INT32", "tensorShape": {}}}, "dtype": {"type": "DT_INT32"}}}, {"name": "StatefulPartitionedCall/cnn_forecast_ensemble/sequential/inception_v3/mixed4/concat/axis", "op": "Const", "attr": {"value": {"tensor": {"dtype": "DT_INT32", "tensorShape": {}}}, "dtype": {"type": "DT_INT32"}}}, {"name": "StatefulPartitionedCall/cnn_forecast_ensemble/sequential/inception_v3/mixed5/concat/axis", "op": "Const", "attr": {"value": {"tensor": {"dtype": "DT_INT32", "tensorShape": {}}}, "dtype": {"type": "DT_INT32"}}}, {"name": "StatefulPartitionedCall/cnn_forecast_ensemble/sequential/inception_v3/mixed6/concat/axis", "op": "Const", "attr": {"value": {"tensor": {"dtype": "DT_INT32", "tensorShape": {}}}, "dtype": {"type": "DT_INT32"}}}, {"name": "StatefulPartitionedCall/cnn_forecast_ensemble/sequential/inception_v3/mixed7/concat/axis", "op": "Const", "attr": {"value": {"tensor": {"dtype": "DT_INT32", "tensorShape": {}}}, "dtype": {"type": "DT_INT32"}}}, {"name": "StatefulPartitionedCall/cnn_forecast_ensemble/sequential/inception_v3/mixed8/concat/axis", "op": "Const", "attr": {"value": {"tensor": {"dtype": "DT_INT32", "tensorShape": {}}}, "dtype": {"type": "DT_INT32"}}}, {"name": "StatefulPartitionedCall/cnn_forecast_ensemble/sequential/inception_v3/mixed9/concat/axis", "op": "Const", "attr": {"value": {"tensor": {"dtype": "DT_INT32", "tensorShape": {}}}, "dtype": {"type": "DT_INT32"}}}, {"name": "StatefulPartitionedCall/cnn_forecast_ensemble/sequential/inception_v3/mixed10/concat/axis", "op": "Const", "attr": {"value": {"tensor": {"dtype": "DT_INT32", "tensorShape": {}}}, "dtype": {"type": "DT_INT32"}}}, {"name": "StatefulPartitionedCall/cnn_forecast_ensemble/sequential/global_average_pooling2d/Mean/reduction_indices", "op": "Const", "attr": {"value": {"tensor": {"dtype": "DT_INT32", "tensorShape": {"dim": [{"size": "2"}]}}}, "dtype": {"type": "DT_INT32"}}}, {"name": "StatefulPartitionedCall/cnn_forecast_ensemble/sequential/batch_normalization_94/batchnorm/mul", "op": "Const", "attr": {"value": {"tensor": {"dtype": "DT_FLOAT", "tensorShape": {"dim": [{"size": "2048"}]}}}, "dtype": {"type": "DT_FLOAT"}}}, {"name": "StatefulPartitionedCall/cnn_forecast_ensemble/sequential/batch_normalization_94/batchnorm/sub", "op": "Const", "attr": {"value": {"tensor": {"dtype": "DT_FLOAT", "tensorShape": {"dim": [{"size": "2048"}]}}}, "dtype": {"type": "DT_FLOAT"}}}, {"name": "StatefulPartitionedCall/cnn_forecast_ensemble/sequential/dense/MatMul/ReadVariableOp", "op": "Const", "attr": {"value": {"tensor": {"dtype": "DT_FLOAT", "tensorShape": {"dim": [{"size": "2048"}, {"size": "128"}]}}}, "dtype": {"type": "DT_FLOAT"}}}, {"name": "StatefulPartitionedCall/cnn_forecast_ensemble/sequential/dense/BiasAdd/ReadVariableOp", "op": "Const", "attr": {"value": {"tensor": {"dtype": "DT_FLOAT", "tensorShape": {"dim": [{"size": "128"}]}}}, "dtype": {"type": "DT_FLOAT"}}}, {"name": "StatefulPartitionedCall/cnn_forecast_ensemble/sequential/dense_1/MatMul/ReadVariableOp", "op": "Const", "attr": {"value": {"tensor": {"dtype": "DT_FLOAT", "tensorShape": {"dim": [{"size": "128"}, {"size": "64"}]}}}, "dtype": {"type": "DT_FLOAT"}}}, {"name": "StatefulPartitionedCall/cnn_forecast_ensemble/sequential/dense_1/BiasAdd/ReadVariableOp", "op": "Const", "attr": {"value": {"tensor": {"dtype": "DT_FLOAT", "tensorShape": {"dim": [{"size": "64"}]}}}, "dtype": {"type": "DT_FLOAT"}}}, {"name": "StatefulPartitionedCall/cnn_forecast_ensemble/sequential/dense_2/MatMul/ReadVariableOp", "op": "Const", "attr": {"value": {"tensor": {"dtype": "DT_FLOAT", "tensorShape": {"dim": [{"size": "64"}, {"size": "32"}]}}}, "dtype": {"type": "DT_FLOAT"}}}, {"name": "StatefulPartitionedCall/cnn_forecast_ensemble/sequential/dense_2/BiasAdd/ReadVariableOp", "op": "Const", "attr": {"value": {"tensor": {"dtype": "DT_FLOAT", "tensorShape": {"dim": [{"size": "32"}]}}}, "dtype": {"type": "DT_FLOAT"}}}, {"name": "StatefulPartitionedCall/cnn_forecast_ensemble/sequential/dense_3/MatMul/ReadVariableOp", "op": "Const", "attr": {"value": {"tensor": {"dtype": "DT_FLOAT", "tensorShape": {"dim": [{"size": "32"}, {"size": "3"}]}}}, "dtype": {"type": "DT_FLOAT"}}}, {"name": "StatefulPartitionedCall/cnn_forecast_ensemble/sequential/dense_3/BiasAdd/ReadVariableOp", "op": "Const", "attr": {"value": {"tensor": {"dtype": "DT_FLOAT", "tensorShape": {"dim": [{"size": "3"}]}}}, "dtype": {"type": "DT_FLOAT"}}}, {"name": "StatefulPartitionedCall/cnn_forecast_ensemble/model_12/bidirectional_7/forward_lstm_7/PartitionedCall/TensorArrayV2_1/element_shape", "op": "Const", "attr": {"value": {"tensor": {"dtype": "DT_INT32", "tensorShape": {"dim": [{"size": "2"}]}}}, "dtype": {"type": "DT_INT32"}}}, {"name": "StatefulPartitionedCall/cnn_forecast_ensemble/model_12/bidirectional_7/forward_lstm_7/PartitionedCall/TensorArrayV2_1/num_elements", "op": "Const", "attr": {"value": {"tensor": {"dtype": "DT_INT32", "tensorShape": {}}}, "dtype": {"type": "DT_INT32"}}}, {"name": "StatefulPartitionedCall/cnn_forecast_ensemble/model_12/bidirectional_7/forward_lstm_7/zeros_1/packed/1", "op": "Const", "attr": {"value": {"tensor": {"dtype": "DT_INT32", "tensorShape": {}}}, "dtype": {"type": "DT_INT32"}}}, {"name": "StatefulPartitionedCall/cnn_forecast_ensemble/model_12/bidirectional_7/forward_lstm_7/zeros_1/Const", "op": "Const", "attr": {"value": {"tensor": {"dtype": "DT_FLOAT", "tensorShape": {}}}, "dtype": {"type": "DT_FLOAT"}}}, {"name": "StatefulPartitionedCall/cnn_forecast_ensemble/model_12/bidirectional_7/forward_lstm_7/PartitionedCall/TensorArrayUnstack/TensorListFromTensor/element_shape", "op": "Const", "attr": {"value": {"tensor": {"dtype": "DT_INT32", "tensorShape": {"dim": [{"size": "2"}]}}}, "dtype": {"type": "DT_INT32"}}}, {"name": "StatefulPartitionedCall/cnn_forecast_ensemble/model_12/bidirectional_7/forward_lstm_7/Read/ReadVariableOp", "op": "Const", "attr": {"value": {"tensor": {"dtype": "DT_FLOAT", "tensorShape": {"dim": [{"size": "64"}, {"size": "64"}]}}}, "dtype": {"type": "DT_FLOAT"}}}, {"name": "StatefulPartitionedCall/cnn_forecast_ensemble/model_12/bidirectional_7/forward_lstm_7/strided_slice/stack", "op": "Const", "attr": {"value": {"tensor": {"dtype": "DT_INT32", "tensorShape": {"dim": [{"size": "1"}]}}}, "dtype": {"type": "DT_INT32"}}}, {"name": "StatefulPartitionedCall/cnn_forecast_ensemble/model_12/bidirectional_7/forward_lstm_7/strided_slice/stack_1", "op": "Const", "attr": {"value": {"tensor": {"dtype": "DT_INT32", "tensorShape": {"dim": [{"size": "1"}]}}}, "dtype": {"type": "DT_INT32"}}}, {"name": "StatefulPartitionedCall/cnn_forecast_ensemble/model_12/bidirectional_7/forward_lstm_7/strided_slice/stack_2", "op": "Const", "attr": {"value": {"tensor": {"dtype": "DT_INT32", "tensorShape": {"dim": [{"size": "1"}]}}}, "dtype": {"type": "DT_INT32"}}}, {"name": "StatefulPartitionedCall/cnn_forecast_ensemble/model_12/bidirectional_7/forward_lstm_7/zeros/packed/1", "op": "Const", "attr": {"value": {"tensor": {"dtype": "DT_INT32", "tensorShape": {}}}, "dtype": {"type": "DT_INT32"}}}, {"name": "StatefulPartitionedCall/cnn_forecast_ensemble/model_12/bidirectional_7/forward_lstm_7/zeros/Const", "op": "Const", "attr": {"value": {"tensor": {"dtype": "DT_FLOAT", "tensorShape": {}}}, "dtype": {"type": "DT_FLOAT"}}}, {"name": "StatefulPartitionedCall/cnn_forecast_ensemble/model_12/bidirectional_7/forward_lstm_7/Read_1/ReadVariableOp", "op": "Const", "attr": {"value": {"tensor": {"dtype": "DT_FLOAT", "tensorShape": {"dim": [{"size": "16"}, {"size": "64"}]}}}, "dtype": {"type": "DT_FLOAT"}}}, {"name": "StatefulPartitionedCall/cnn_forecast_ensemble/model_12/bidirectional_7/forward_lstm_7/Read_2/ReadVariableOp", "op": "Const", "attr": {"value": {"tensor": {"dtype": "DT_FLOAT", "tensorShape": {"dim": [{"size": "64"}]}}}, "dtype": {"type": "DT_FLOAT"}}}, {"name": "StatefulPartitionedCall/cnn_forecast_ensemble/model_12/bidirectional_7/forward_lstm_7/PartitionedCall/time", "op": "Const", "attr": {"value": {"tensor": {"dtype": "DT_INT32", "tensorShape": {}}}, "dtype": {"type": "DT_INT32"}}}, {"name": "StatefulPartitionedCall/cnn_forecast_ensemble/model_12/bidirectional_7/forward_lstm_7/PartitionedCall/transpose/perm", "op": "Const", "attr": {"value": {"tensor": {"dtype": "DT_INT32", "tensorShape": {"dim": [{"size": "3"}]}}}, "dtype": {"type": "DT_INT32"}}}, {"name": "StatefulPartitionedCall/cnn_forecast_ensemble/model_12/bidirectional_7/forward_lstm_7/PartitionedCall/strided_slice/stack", "op": "Const", "attr": {"value": {"tensor": {"dtype": "DT_INT32", "tensorShape": {"dim": [{"size": "1"}]}}}, "dtype": {"type": "DT_INT32"}}}, {"name": "StatefulPartitionedCall/cnn_forecast_ensemble/model_12/bidirectional_7/forward_lstm_7/PartitionedCall/strided_slice/stack_1", "op": "Const", "attr": {"value": {"tensor": {"dtype": "DT_INT32", "tensorShape": {"dim": [{"size": "1"}]}}}, "dtype": {"type": "DT_INT32"}}}, {"name": "StatefulPartitionedCall/cnn_forecast_ensemble/model_12/bidirectional_7/forward_lstm_7/PartitionedCall/strided_slice/stack_2", "op": "Const", "attr": {"value": {"tensor": {"dtype": "DT_INT32", "tensorShape": {"dim": [{"size": "1"}]}}}, "dtype": {"type": "DT_INT32"}}}, {"name": "StatefulPartitionedCall/cnn_forecast_ensemble/model_12/bidirectional_7/forward_lstm_7/PartitionedCall/while/loop_counter", "op": "Const", "attr": {"value": {"tensor": {"dtype": "DT_INT32", "tensorShape": {}}}, "dtype": {"type": "DT_INT32"}}}, {"name": "StatefulPartitionedCall/cnn_forecast_ensemble/model_12/bidirectional_7/forward_lstm_7/PartitionedCall/TensorArrayV2Stack/TensorListStack/element_shape", "op": "Const", "attr": {"value": {"tensor": {"dtype": "DT_INT32", "tensorShape": {"dim": [{"size": "2"}]}}}, "dtype": {"type": "DT_INT32"}}}, {"name": "StatefulPartitionedCall/cnn_forecast_ensemble/model_12/bidirectional_7/forward_lstm_7/PartitionedCall/strided_slice_2/stack", "op": "Const", "attr": {"value": {"tensor": {"dtype": "DT_INT32", "tensorShape": {"dim": [{"size": "1"}]}}}, "dtype": {"type": "DT_INT32"}}}, {"name": "StatefulPartitionedCall/cnn_forecast_ensemble/model_12/bidirectional_7/forward_lstm_7/PartitionedCall/strided_slice_2/stack_1", "op": "Const", "attr": {"value": {"tensor": {"dtype": "DT_INT32", "tensorShape": {"dim": [{"size": "1"}]}}}, "dtype": {"type": "DT_INT32"}}}, {"name": "StatefulPartitionedCall/cnn_forecast_ensemble/model_12/bidirectional_7/forward_lstm_7/PartitionedCall/strided_slice_2/stack_2", "op": "Const", "attr": {"value": {"tensor": {"dtype": "DT_INT32", "tensorShape": {"dim": [{"size": "1"}]}}}, "dtype": {"type": "DT_INT32"}}}, {"name": "StatefulPartitionedCall/cnn_forecast_ensemble/model_12/bidirectional_7/backward_lstm_7/PartitionedCall/TensorArrayV2_1/element_shape", "op": "Const", "attr": {"value": {"tensor": {"dtype": "DT_INT32", "tensorShape": {"dim": [{"size": "2"}]}}}, "dtype": {"type": "DT_INT32"}}}, {"name": "StatefulPartitionedCall/cnn_forecast_ensemble/model_12/bidirectional_7/backward_lstm_7/PartitionedCall/TensorArrayV2_1/num_elements", "op": "Const", "attr": {"value": {"tensor": {"dtype": "DT_INT32", "tensorShape": {}}}, "dtype": {"type": "DT_INT32"}}}, {"name": "StatefulPartitionedCall/cnn_forecast_ensemble/model_12/bidirectional_7/backward_lstm_7/zeros_1/packed/1", "op": "Const", "attr": {"value": {"tensor": {"dtype": "DT_INT32", "tensorShape": {}}}, "dtype": {"type": "DT_INT32"}}}, {"name": "StatefulPartitionedCall/cnn_forecast_ensemble/model_12/bidirectional_7/backward_lstm_7/zeros_1/Const", "op": "Const", "attr": {"value": {"tensor": {"dtype": "DT_FLOAT", "tensorShape": {}}}, "dtype": {"type": "DT_FLOAT"}}}, {"name": "StatefulPartitionedCall/cnn_forecast_ensemble/model_12/bidirectional_7/backward_lstm_7/PartitionedCall/ReverseV2/axis", "op": "Const", "attr": {"value": {"tensor": {"dtype": "DT_INT32", "tensorShape": {"dim": [{"size": "1"}]}}}, "dtype": {"type": "DT_INT32"}}}, {"name": "StatefulPartitionedCall/cnn_forecast_ensemble/model_12/bidirectional_7/backward_lstm_7/PartitionedCall/TensorArrayUnstack/TensorListFromTensor/element_shape", "op": "Const", "attr": {"value": {"tensor": {"dtype": "DT_INT32", "tensorShape": {"dim": [{"size": "2"}]}}}, "dtype": {"type": "DT_INT32"}}}, {"name": "StatefulPartitionedCall/cnn_forecast_ensemble/model_12/bidirectional_7/backward_lstm_7/Read/ReadVariableOp", "op": "Const", "attr": {"value": {"tensor": {"dtype": "DT_FLOAT", "tensorShape": {"dim": [{"size": "64"}, {"size": "64"}]}}}, "dtype": {"type": "DT_FLOAT"}}}, {"name": "StatefulPartitionedCall/cnn_forecast_ensemble/model_12/bidirectional_7/backward_lstm_7/strided_slice/stack", "op": "Const", "attr": {"value": {"tensor": {"dtype": "DT_INT32", "tensorShape": {"dim": [{"size": "1"}]}}}, "dtype": {"type": "DT_INT32"}}}, {"name": "StatefulPartitionedCall/cnn_forecast_ensemble/model_12/bidirectional_7/backward_lstm_7/strided_slice/stack_1", "op": "Const", "attr": {"value": {"tensor": {"dtype": "DT_INT32", "tensorShape": {"dim": [{"size": "1"}]}}}, "dtype": {"type": "DT_INT32"}}}, {"name": "StatefulPartitionedCall/cnn_forecast_ensemble/model_12/bidirectional_7/backward_lstm_7/strided_slice/stack_2", "op": "Const", "attr": {"value": {"tensor": {"dtype": "DT_INT32", "tensorShape": {"dim": [{"size": "1"}]}}}, "dtype": {"type": "DT_INT32"}}}, {"name": "StatefulPartitionedCall/cnn_forecast_ensemble/model_12/bidirectional_7/backward_lstm_7/zeros/packed/1", "op": "Const", "attr": {"value": {"tensor": {"dtype": "DT_INT32", "tensorShape": {}}}, "dtype": {"type": "DT_INT32"}}}, {"name": "StatefulPartitionedCall/cnn_forecast_ensemble/model_12/bidirectional_7/backward_lstm_7/zeros/Const", "op": "Const", "attr": {"value": {"tensor": {"dtype": "DT_FLOAT", "tensorShape": {}}}, "dtype": {"type": "DT_FLOAT"}}}, {"name": "StatefulPartitionedCall/cnn_forecast_ensemble/model_12/bidirectional_7/backward_lstm_7/Read_1/ReadVariableOp", "op": "Const", "attr": {"value": {"tensor": {"dtype": "DT_FLOAT", "tensorShape": {"dim": [{"size": "16"}, {"size": "64"}]}}}, "dtype": {"type": "DT_FLOAT"}}}, {"name": "StatefulPartitionedCall/cnn_forecast_ensemble/model_12/bidirectional_7/backward_lstm_7/Read_2/ReadVariableOp", "op": "Const", "attr": {"value": {"tensor": {"dtype": "DT_FLOAT", "tensorShape": {"dim": [{"size": "64"}]}}}, "dtype": {"type": "DT_FLOAT"}}}, {"name": "StatefulPartitionedCall/cnn_forecast_ensemble/model_12/bidirectional_7/backward_lstm_7/PartitionedCall/time", "op": "Const", "attr": {"value": {"tensor": {"dtype": "DT_INT32", "tensorShape": {}}}, "dtype": {"type": "DT_INT32"}}}, {"name": "StatefulPartitionedCall/cnn_forecast_ensemble/model_12/bidirectional_6/forward_lstm_6/PartitionedCall/TensorArrayV2_1/element_shape", "op": "Const", "attr": {"value": {"tensor": {"dtype": "DT_INT32", "tensorShape": {"dim": [{"size": "2"}]}}}, "dtype": {"type": "DT_INT32"}}}, {"name": "StatefulPartitionedCall/cnn_forecast_ensemble/model_12/bidirectional_6/forward_lstm_6/zeros_1/packed/1", "op": "Const", "attr": {"value": {"tensor": {"dtype": "DT_INT32", "tensorShape": {}}}, "dtype": {"type": "DT_INT32"}}}, {"name": "StatefulPartitionedCall/cnn_forecast_ensemble/model_12/bidirectional_6/forward_lstm_6/zeros_1/Const", "op": "Const", "attr": {"value": {"tensor": {"dtype": "DT_FLOAT", "tensorShape": {}}}, "dtype": {"type": "DT_FLOAT"}}}, {"name": "StatefulPartitionedCall/cnn_forecast_ensemble/model_12/bidirectional_6/forward_lstm_6/PartitionedCall/TensorArrayUnstack/TensorListFromTensor/element_shape", "op": "Const", "attr": {"value": {"tensor": {"dtype": "DT_INT32", "tensorShape": {"dim": [{"size": "2"}]}}}, "dtype": {"type": "DT_INT32"}}}, {"name": "StatefulPartitionedCall/cnn_forecast_ensemble/model_12/bidirectional_6/forward_lstm_6/Read/ReadVariableOp", "op": "Const", "attr": {"value": {"tensor": {"dtype": "DT_FLOAT", "tensorShape": {"dim": [{"size": "16"}, {"size": "128"}]}}}, "dtype": {"type": "DT_FLOAT"}}}, {"name": "StatefulPartitionedCall/cnn_forecast_ensemble/model_12/bidirectional_6/forward_lstm_6/strided_slice/stack", "op": "Const", "attr": {"value": {"tensor": {"dtype": "DT_INT32", "tensorShape": {"dim": [{"size": "1"}]}}}, "dtype": {"type": "DT_INT32"}}}, {"name": "StatefulPartitionedCall/cnn_forecast_ensemble/model_12/bidirectional_6/forward_lstm_6/strided_slice/stack_1", "op": "Const", "attr": {"value": {"tensor": {"dtype": "DT_INT32", "tensorShape": {"dim": [{"size": "1"}]}}}, "dtype": {"type": "DT_INT32"}}}, {"name": "StatefulPartitionedCall/cnn_forecast_ensemble/model_12/bidirectional_6/forward_lstm_6/strided_slice/stack_2", "op": "Const", "attr": {"value": {"tensor": {"dtype": "DT_INT32", "tensorShape": {"dim": [{"size": "1"}]}}}, "dtype": {"type": "DT_INT32"}}}, {"name": "StatefulPartitionedCall/cnn_forecast_ensemble/model_12/bidirectional_6/forward_lstm_6/zeros/packed/1", "op": "Const", "attr": {"value": {"tensor": {"dtype": "DT_INT32", "tensorShape": {}}}, "dtype": {"type": "DT_INT32"}}}, {"name": "StatefulPartitionedCall/cnn_forecast_ensemble/model_12/bidirectional_6/forward_lstm_6/zeros/Const", "op": "Const", "attr": {"value": {"tensor": {"dtype": "DT_FLOAT", "tensorShape": {}}}, "dtype": {"type": "DT_FLOAT"}}}, {"name": "StatefulPartitionedCall/cnn_forecast_ensemble/model_12/bidirectional_6/forward_lstm_6/Read_1/ReadVariableOp", "op": "Const", "attr": {"value": {"tensor": {"dtype": "DT_FLOAT", "tensorShape": {"dim": [{"size": "32"}, {"size": "128"}]}}}, "dtype": {"type": "DT_FLOAT"}}}, {"name": "StatefulPartitionedCall/cnn_forecast_ensemble/model_12/bidirectional_6/forward_lstm_6/Read_2/ReadVariableOp", "op": "Const", "attr": {"value": {"tensor": {"dtype": "DT_FLOAT", "tensorShape": {"dim": [{"size": "128"}]}}}, "dtype": {"type": "DT_FLOAT"}}}, {"name": "StatefulPartitionedCall/cnn_forecast_ensemble/model_12/bidirectional_6/forward_lstm_6/PartitionedCall/time", "op": "Const", "attr": {"value": {"tensor": {"dtype": "DT_INT32", "tensorShape": {}}}, "dtype": {"type": "DT_INT32"}}}, {"name": "StatefulPartitionedCall/cnn_forecast_ensemble/model_12/bidirectional_6/forward_lstm_6/PartitionedCall/transpose/perm", "op": "Const", "attr": {"value": {"tensor": {"dtype": "DT_INT32", "tensorShape": {"dim": [{"size": "3"}]}}}, "dtype": {"type": "DT_INT32"}}}, {"name": "StatefulPartitionedCall/cnn_forecast_ensemble/model_12/bidirectional_6/forward_lstm_6/PartitionedCall/strided_slice/stack", "op": "Const", "attr": {"value": {"tensor": {"dtype": "DT_INT32", "tensorShape": {"dim": [{"size": "1"}]}}}, "dtype": {"type": "DT_INT32"}}}, {"name": "StatefulPartitionedCall/cnn_forecast_ensemble/model_12/bidirectional_6/forward_lstm_6/PartitionedCall/strided_slice/stack_1", "op": "Const", "attr": {"value": {"tensor": {"dtype": "DT_INT32", "tensorShape": {"dim": [{"size": "1"}]}}}, "dtype": {"type": "DT_INT32"}}}, {"name": "StatefulPartitionedCall/cnn_forecast_ensemble/model_12/bidirectional_6/forward_lstm_6/PartitionedCall/strided_slice/stack_2", "op": "Const", "attr": {"value": {"tensor": {"dtype": "DT_INT32", "tensorShape": {"dim": [{"size": "1"}]}}}, "dtype": {"type": "DT_INT32"}}}, {"name": "StatefulPartitionedCall/cnn_forecast_ensemble/model_12/bidirectional_6/forward_lstm_6/PartitionedCall/while/loop_counter", "op": "Const", "attr": {"value": {"tensor": {"dtype": "DT_INT32", "tensorShape": {}}}, "dtype": {"type": "DT_INT32"}}}, {"name": "StatefulPartitionedCall/cnn_forecast_ensemble/model_12/bidirectional_6/forward_lstm_6/PartitionedCall/TensorArrayV2Stack/TensorListStack/element_shape", "op": "Const", "attr": {"value": {"tensor": {"dtype": "DT_INT32", "tensorShape": {"dim": [{"size": "2"}]}}}, "dtype": {"type": "DT_INT32"}}}, {"name": "StatefulPartitionedCall/cnn_forecast_ensemble/model_12/bidirectional_6/forward_lstm_6/PartitionedCall/transpose_1/perm", "op": "Const", "attr": {"value": {"tensor": {"dtype": "DT_INT32", "tensorShape": {"dim": [{"size": "3"}]}}}, "dtype": {"type": "DT_INT32"}}}, {"name": "StatefulPartitionedCall/cnn_forecast_ensemble/model_12/bidirectional_6/backward_lstm_6/PartitionedCall/TensorArrayV2_1/element_shape", "op": "Const", "attr": {"value": {"tensor": {"dtype": "DT_INT32", "tensorShape": {"dim": [{"size": "2"}]}}}, "dtype": {"type": "DT_INT32"}}}, {"name": "StatefulPartitionedCall/cnn_forecast_ensemble/model_12/bidirectional_6/backward_lstm_6/zeros_1/packed/1", "op": "Const", "attr": {"value": {"tensor": {"dtype": "DT_INT32", "tensorShape": {}}}, "dtype": {"type": "DT_INT32"}}}, {"name": "StatefulPartitionedCall/cnn_forecast_ensemble/model_12/bidirectional_6/backward_lstm_6/zeros_1/Const", "op": "Const", "attr": {"value": {"tensor": {"dtype": "DT_FLOAT", "tensorShape": {}}}, "dtype": {"type": "DT_FLOAT"}}}, {"name": "StatefulPartitionedCall/cnn_forecast_ensemble/model_12/bidirectional_6/backward_lstm_6/PartitionedCall/ReverseV2/axis", "op": "Const", "attr": {"value": {"tensor": {"dtype": "DT_INT32", "tensorShape": {"dim": [{"size": "1"}]}}}, "dtype": {"type": "DT_INT32"}}}, {"name": "StatefulPartitionedCall/cnn_forecast_ensemble/model_12/bidirectional_6/backward_lstm_6/PartitionedCall/TensorArrayUnstack/TensorListFromTensor/element_shape", "op": "Const", "attr": {"value": {"tensor": {"dtype": "DT_INT32", "tensorShape": {"dim": [{"size": "2"}]}}}, "dtype": {"type": "DT_INT32"}}}, {"name": "StatefulPartitionedCall/cnn_forecast_ensemble/model_12/bidirectional_6/backward_lstm_6/Read/ReadVariableOp", "op": "Const", "attr": {"value": {"tensor": {"dtype": "DT_FLOAT", "tensorShape": {"dim": [{"size": "16"}, {"size": "128"}]}}}, "dtype": {"type": "DT_FLOAT"}}}, {"name": "StatefulPartitionedCall/cnn_forecast_ensemble/model_12/bidirectional_6/backward_lstm_6/strided_slice/stack", "op": "Const", "attr": {"value": {"tensor": {"dtype": "DT_INT32", "tensorShape": {"dim": [{"size": "1"}]}}}, "dtype": {"type": "DT_INT32"}}}, {"name": "StatefulPartitionedCall/cnn_forecast_ensemble/model_12/bidirectional_6/backward_lstm_6/strided_slice/stack_1", "op": "Const", "attr": {"value": {"tensor": {"dtype": "DT_INT32", "tensorShape": {"dim": [{"size": "1"}]}}}, "dtype": {"type": "DT_INT32"}}}, {"name": "StatefulPartitionedCall/cnn_forecast_ensemble/model_12/bidirectional_6/backward_lstm_6/strided_slice/stack_2", "op": "Const", "attr": {"value": {"tensor": {"dtype": "DT_INT32", "tensorShape": {"dim": [{"size": "1"}]}}}, "dtype": {"type": "DT_INT32"}}}, {"name": "StatefulPartitionedCall/cnn_forecast_ensemble/model_12/bidirectional_6/backward_lstm_6/zeros/packed/1", "op": "Const", "attr": {"value": {"tensor": {"dtype": "DT_INT32", "tensorShape": {}}}, "dtype": {"type": "DT_INT32"}}}, {"name": "StatefulPartitionedCall/cnn_forecast_ensemble/model_12/bidirectional_6/backward_lstm_6/zeros/Const", "op": "Const", "attr": {"value": {"tensor": {"dtype": "DT_FLOAT", "tensorShape": {}}}, "dtype": {"type": "DT_FLOAT"}}}, {"name": "StatefulPartitionedCall/cnn_forecast_ensemble/model_12/bidirectional_6/backward_lstm_6/Read_1/ReadVariableOp", "op": "Const", "attr": {"value": {"tensor": {"dtype": "DT_FLOAT", "tensorShape": {"dim": [{"size": "32"}, {"size": "128"}]}}}, "dtype": {"type": "DT_FLOAT"}}}, {"name": "StatefulPartitionedCall/cnn_forecast_ensemble/model_12/bidirectional_6/backward_lstm_6/Read_2/ReadVariableOp", "op": "Const", "attr": {"value": {"tensor": {"dtype": "DT_FLOAT", "tensorShape": {"dim": [{"size": "128"}]}}}, "dtype": {"type": "DT_FLOAT"}}}, {"name": "StatefulPartitionedCall/cnn_forecast_ensemble/model_12/bidirectional_6/backward_lstm_6/PartitionedCall/time", "op": "Const", "attr": {"value": {"tensor": {"dtype": "DT_INT32", "tensorShape": {}}}, "dtype": {"type": "DT_INT32"}}}, {"name": "StatefulPartitionedCall/cnn_forecast_ensemble/model_12/conv1d_15/Conv1D/ExpandDims/dim", "op": "Const", "attr": {"value": {"tensor": {"dtype": "DT_INT32", "tensorShape": {}}}, "dtype": {"type": "DT_INT32"}}}, {"name": "StatefulPartitionedCall/cnn_forecast_ensemble/model_12/conv1d_15/Conv1D/ExpandDims_1", "op": "Const", "attr": {"value": {"tensor": {"dtype": "DT_FLOAT", "tensorShape": {"dim": [{"size": "1"}, {"size": "3"}, {"size": "18"}, {"size": "16"}]}}}, "dtype": {"type": "DT_FLOAT"}}}, {"name": "StatefulPartitionedCall/cnn_forecast_ensemble/model_12/conv1d_15/BiasAdd/ReadVariableOp", "op": "Const", "attr": {"value": {"tensor": {"dtype": "DT_FLOAT", "tensorShape": {"dim": [{"size": "16"}]}}}, "dtype": {"type": "DT_FLOAT"}}}, {"name": "StatefulPartitionedCall/cnn_forecast_ensemble/model_12/batch_normalization_12/batchnorm/mul", "op": "Const", "attr": {"value": {"tensor": {"dtype": "DT_FLOAT", "tensorShape": {"dim": [{"size": "16"}]}}}, "dtype": {"type": "DT_FLOAT"}}}, {"name": "StatefulPartitionedCall/cnn_forecast_ensemble/model_12/batch_normalization_12/batchnorm/sub", "op": "Const", "attr": {"value": {"tensor": {"dtype": "DT_FLOAT", "tensorShape": {"dim": [{"size": "16"}]}}}, "dtype": {"type": "DT_FLOAT"}}}, {"name": "StatefulPartitionedCall/cnn_forecast_ensemble/model_12/bidirectional_6/backward_lstm_6/PartitionedCall/transpose/perm", "op": "Const", "attr": {"value": {"tensor": {"dtype": "DT_INT32", "tensorShape": {"dim": [{"size": "3"}]}}}, "dtype": {"type": "DT_INT32"}}}, {"name": "StatefulPartitionedCall/cnn_forecast_ensemble/model_12/bidirectional_6/backward_lstm_6/PartitionedCall/strided_slice/stack", "op": "Const", "attr": {"value": {"tensor": {"dtype": "DT_INT32", "tensorShape": {"dim": [{"size": "1"}]}}}, "dtype": {"type": "DT_INT32"}}}, {"name": "StatefulPartitionedCall/cnn_forecast_ensemble/model_12/bidirectional_6/backward_lstm_6/PartitionedCall/strided_slice/stack_1", "op": "Const", "attr": {"value": {"tensor": {"dtype": "DT_INT32", "tensorShape": {"dim": [{"size": "1"}]}}}, "dtype": {"type": "DT_INT32"}}}, {"name": "StatefulPartitionedCall/cnn_forecast_ensemble/model_12/bidirectional_6/backward_lstm_6/PartitionedCall/strided_slice/stack_2", "op": "Const", "attr": {"value": {"tensor": {"dtype": "DT_INT32", "tensorShape": {"dim": [{"size": "1"}]}}}, "dtype": {"type": "DT_INT32"}}}, {"name": "StatefulPartitionedCall/cnn_forecast_ensemble/model_12/bidirectional_6/backward_lstm_6/PartitionedCall/while/loop_counter", "op": "Const", "attr": {"value": {"tensor": {"dtype": "DT_INT32", "tensorShape": {}}}, "dtype": {"type": "DT_INT32"}}}, {"name": "StatefulPartitionedCall/cnn_forecast_ensemble/model_12/bidirectional_6/backward_lstm_6/PartitionedCall/TensorArrayV2Stack/TensorListStack/element_shape", "op": "Const", "attr": {"value": {"tensor": {"dtype": "DT_INT32", "tensorShape": {"dim": [{"size": "2"}]}}}, "dtype": {"type": "DT_INT32"}}}, {"name": "StatefulPartitionedCall/cnn_forecast_ensemble/model_12/bidirectional_6/backward_lstm_6/PartitionedCall/transpose_1/perm", "op": "Const", "attr": {"value": {"tensor": {"dtype": "DT_INT32", "tensorShape": {"dim": [{"size": "3"}]}}}, "dtype": {"type": "DT_INT32"}}}, {"name": "StatefulPartitionedCall/cnn_forecast_ensemble/model_12/bidirectional_6/ReverseV2/axis", "op": "Const", "attr": {"value": {"tensor": {"dtype": "DT_INT32", "tensorShape": {"dim": [{"size": "1"}]}}}, "dtype": {"type": "DT_INT32"}}}, {"name": "StatefulPartitionedCall/cnn_forecast_ensemble/model_12/bidirectional_6/concat/axis", "op": "Const", "attr": {"value": {"tensor": {"dtype": "DT_INT32", "tensorShape": {}}}, "dtype": {"type": "DT_INT32"}}}, {"name": "StatefulPartitionedCall/cnn_forecast_ensemble/model_12/bidirectional_7/backward_lstm_7/PartitionedCall/transpose/perm", "op": "Const", "attr": {"value": {"tensor": {"dtype": "DT_INT32", "tensorShape": {"dim": [{"size": "3"}]}}}, "dtype": {"type": "DT_INT32"}}}, {"name": "StatefulPartitionedCall/cnn_forecast_ensemble/model_12/bidirectional_7/backward_lstm_7/PartitionedCall/strided_slice/stack", "op": "Const", "attr": {"value": {"tensor": {"dtype": "DT_INT32", "tensorShape": {"dim": [{"size": "1"}]}}}, "dtype": {"type": "DT_INT32"}}}, {"name": "StatefulPartitionedCall/cnn_forecast_ensemble/model_12/bidirectional_7/backward_lstm_7/PartitionedCall/strided_slice/stack_1", "op": "Const", "attr": {"value": {"tensor": {"dtype": "DT_INT32", "tensorShape": {"dim": [{"size": "1"}]}}}, "dtype": {"type": "DT_INT32"}}}, {"name": "StatefulPartitionedCall/cnn_forecast_ensemble/model_12/bidirectional_7/backward_lstm_7/PartitionedCall/strided_slice/stack_2", "op": "Const", "attr": {"value": {"tensor": {"dtype": "DT_INT32", "tensorShape": {"dim": [{"size": "1"}]}}}, "dtype": {"type": "DT_INT32"}}}, {"name": "StatefulPartitionedCall/cnn_forecast_ensemble/model_12/bidirectional_7/backward_lstm_7/PartitionedCall/while/loop_counter", "op": "Const", "attr": {"value": {"tensor": {"dtype": "DT_INT32", "tensorShape": {}}}, "dtype": {"type": "DT_INT32"}}}, {"name": "StatefulPartitionedCall/cnn_forecast_ensemble/model_12/bidirectional_7/backward_lstm_7/PartitionedCall/TensorArrayV2Stack/TensorListStack/element_shape", "op": "Const", "attr": {"value": {"tensor": {"dtype": "DT_INT32", "tensorShape": {"dim": [{"size": "2"}]}}}, "dtype": {"type": "DT_INT32"}}}, {"name": "StatefulPartitionedCall/cnn_forecast_ensemble/model_12/bidirectional_7/backward_lstm_7/PartitionedCall/strided_slice_2/stack", "op": "Const", "attr": {"value": {"tensor": {"dtype": "DT_INT32", "tensorShape": {"dim": [{"size": "1"}]}}}, "dtype": {"type": "DT_INT32"}}}, {"name": "StatefulPartitionedCall/cnn_forecast_ensemble/model_12/bidirectional_7/backward_lstm_7/PartitionedCall/strided_slice_2/stack_1", "op": "Const", "attr": {"value": {"tensor": {"dtype": "DT_INT32", "tensorShape": {"dim": [{"size": "1"}]}}}, "dtype": {"type": "DT_INT32"}}}, {"name": "StatefulPartitionedCall/cnn_forecast_ensemble/model_12/bidirectional_7/backward_lstm_7/PartitionedCall/strided_slice_2/stack_2", "op": "Const", "attr": {"value": {"tensor": {"dtype": "DT_INT32", "tensorShape": {"dim": [{"size": "1"}]}}}, "dtype": {"type": "DT_INT32"}}}, {"name": "StatefulPartitionedCall/cnn_forecast_ensemble/model_12/bidirectional_7/concat/axis", "op": "Const", "attr": {"value": {"tensor": {"dtype": "DT_INT32", "tensorShape": {}}}, "dtype": {"type": "DT_INT32"}}}, {"name": "StatefulPartitionedCall/cnn_forecast_ensemble/model_12/dense_12/MatMul/ReadVariableOp", "op": "Const", "attr": {"value": {"tensor": {"dtype": "DT_FLOAT", "tensorShape": {"dim": [{"size": "32"}, {"size": "32"}]}}}, "dtype": {"type": "DT_FLOAT"}}}, {"name": "StatefulPartitionedCall/cnn_forecast_ensemble/model_12/dense_12/BiasAdd/ReadVariableOp", "op": "Const", "attr": {"value": {"tensor": {"dtype": "DT_FLOAT", "tensorShape": {"dim": [{"size": "32"}]}}}, "dtype": {"type": "DT_FLOAT"}}}, {"name": "StatefulPartitionedCall/cnn_forecast_ensemble/model_12/dense_13/MatMul/ReadVariableOp", "op": "Const", "attr": {"value": {"tensor": {"dtype": "DT_FLOAT", "tensorShape": {"dim": [{"size": "32"}, {"size": "8"}]}}}, "dtype": {"type": "DT_FLOAT"}}}, {"name": "StatefulPartitionedCall/cnn_forecast_ensemble/model_12/dense_13/BiasAdd/ReadVariableOp", "op": "Const", "attr": {"value": {"tensor": {"dtype": "DT_FLOAT", "tensorShape": {"dim": [{"size": "8"}]}}}, "dtype": {"type": "DT_FLOAT"}}}, {"name": "StatefulPartitionedCall/cnn_forecast_ensemble/model_12/conv1d_16/Conv1D/ExpandDims/dim", "op": "Const", "attr": {"value": {"tensor": {"dtype": "DT_INT32", "tensorShape": {}}}, "dtype": {"type": "DT_INT32"}}}, {"name": "StatefulPartitionedCall/cnn_forecast_ensemble/model_12/conv1d_16/Conv1D/ExpandDims_1", "op": "Const", "attr": {"value": {"tensor": {"dtype": "DT_FLOAT", "tensorShape": {"dim": [{"size": "1"}, {"size": "1"}, {"size": "18"}, {"size": "32"}]}}}, "dtype": {"type": "DT_FLOAT"}}}, {"name": "StatefulPartitionedCall/cnn_forecast_ensemble/model_12/conv1d_16/BiasAdd/ReadVariableOp", "op": "Const", "attr": {"value": {"tensor": {"dtype": "DT_FLOAT", "tensorShape": {"dim": [{"size": "32"}]}}}, "dtype": {"type": "DT_FLOAT"}}}, {"name": "StatefulPartitionedCall/cnn_forecast_ensemble/model_12/conv1d_17/Conv1D/ExpandDims/dim", "op": "Const", "attr": {"value": {"tensor": {"dtype": "DT_INT32", "tensorShape": {}}}, "dtype": {"type": "DT_INT32"}}}, {"name": "StatefulPartitionedCall/cnn_forecast_ensemble/model_12/conv1d_17/Conv1D/ExpandDims_1", "op": "Const", "attr": {"value": {"tensor": {"dtype": "DT_FLOAT", "tensorShape": {"dim": [{"size": "1"}, {"size": "3"}, {"size": "32"}, {"size": "32"}]}}}, "dtype": {"type": "DT_FLOAT"}}}, {"name": "StatefulPartitionedCall/cnn_forecast_ensemble/model_12/conv1d_17/BiasAdd/ReadVariableOp", "op": "Const", "attr": {"value": {"tensor": {"dtype": "DT_FLOAT", "tensorShape": {"dim": [{"size": "32"}]}}}, "dtype": {"type": "DT_FLOAT"}}}, {"name": "StatefulPartitionedCall/cnn_forecast_ensemble/model_12/batch_normalization_13/batchnorm/mul", "op": "Const", "attr": {"value": {"tensor": {"dtype": "DT_FLOAT", "tensorShape": {"dim": [{"size": "32"}]}}}, "dtype": {"type": "DT_FLOAT"}}}, {"name": "StatefulPartitionedCall/cnn_forecast_ensemble/model_12/batch_normalization_13/batchnorm/sub", "op": "Const", "attr": {"value": {"tensor": {"dtype": "DT_FLOAT", "tensorShape": {"dim": [{"size": "32"}]}}}, "dtype": {"type": "DT_FLOAT"}}}, {"name": "StatefulPartitionedCall/cnn_forecast_ensemble/model_12/conv1d_18/Conv1D/SpaceToBatchND/block_shape", "op": "Const", "attr": {"value": {"tensor": {"dtype": "DT_INT32", "tensorShape": {"dim": [{"size": "1"}]}}}, "dtype": {"type": "DT_INT32"}}}, {"name": "StatefulPartitionedCall/cnn_forecast_ensemble/model_12/conv1d_18/Conv1D/SpaceToBatchND/paddings", "op": "Const", "attr": {"value": {"tensor": {"dtype": "DT_INT32", "tensorShape": {"dim": [{"size": "1"}, {"size": "2"}]}}}, "dtype": {"type": "DT_INT32"}}}, {"name": "StatefulPartitionedCall/cnn_forecast_ensemble/model_12/conv1d_18/Conv1D/ExpandDims/dim", "op": "Const", "attr": {"value": {"tensor": {"dtype": "DT_INT32", "tensorShape": {}}}, "dtype": {"type": "DT_INT32"}}}, {"name": "StatefulPartitionedCall/cnn_forecast_ensemble/model_12/conv1d_18/Conv1D/ExpandDims_1", "op": "Const", "attr": {"value": {"tensor": {"dtype": "DT_FLOAT", "tensorShape": {"dim": [{"size": "1"}, {"size": "3"}, {"size": "32"}, {"size": "32"}]}}}, "dtype": {"type": "DT_FLOAT"}}}, {"name": "StatefulPartitionedCall/cnn_forecast_ensemble/model_12/conv1d_18/Conv1D/BatchToSpaceND/block_shape", "op": "Const", "attr": {"value": {"tensor": {"dtype": "DT_INT32", "tensorShape": {"dim": [{"size": "1"}]}}}, "dtype": {"type": "DT_INT32"}}}, {"name": "StatefulPartitionedCall/cnn_forecast_ensemble/model_12/conv1d_18/Conv1D/BatchToSpaceND/crops", "op": "Const", "attr": {"value": {"tensor": {"dtype": "DT_INT32", "tensorShape": {"dim": [{"size": "1"}, {"size": "2"}]}}}, "dtype": {"type": "DT_INT32"}}}, {"name": "StatefulPartitionedCall/cnn_forecast_ensemble/model_12/conv1d_18/BiasAdd/ReadVariableOp", "op": "Const", "attr": {"value": {"tensor": {"dtype": "DT_FLOAT", "tensorShape": {"dim": [{"size": "32"}]}}}, "dtype": {"type": "DT_FLOAT"}}}, {"name": "StatefulPartitionedCall/cnn_forecast_ensemble/model_12/batch_normalization_14/batchnorm/mul", "op": "Const", "attr": {"value": {"tensor": {"dtype": "DT_FLOAT", "tensorShape": {"dim": [{"size": "32"}]}}}, "dtype": {"type": "DT_FLOAT"}}}, {"name": "StatefulPartitionedCall/cnn_forecast_ensemble/model_12/batch_normalization_14/batchnorm/sub", "op": "Const", "attr": {"value": {"tensor": {"dtype": "DT_FLOAT", "tensorShape": {"dim": [{"size": "32"}]}}}, "dtype": {"type": "DT_FLOAT"}}}, {"name": "StatefulPartitionedCall/cnn_forecast_ensemble/model_12/conv1d_19/Conv1D/SpaceToBatchND/block_shape", "op": "Const", "attr": {"value": {"tensor": {"dtype": "DT_INT32", "tensorShape": {"dim": [{"size": "1"}]}}}, "dtype": {"type": "DT_INT32"}}}, {"name": "StatefulPartitionedCall/cnn_forecast_ensemble/model_12/conv1d_19/Conv1D/SpaceToBatchND/paddings", "op": "Const", "attr": {"value": {"tensor": {"dtype": "DT_INT32", "tensorShape": {"dim": [{"size": "1"}, {"size": "2"}]}}}, "dtype": {"type": "DT_INT32"}}}, {"name": "StatefulPartitionedCall/cnn_forecast_ensemble/model_12/conv1d_19/Conv1D/ExpandDims/dim", "op": "Const", "attr": {"value": {"tensor": {"dtype": "DT_INT32", "tensorShape": {}}}, "dtype": {"type": "DT_INT32"}}}, {"name": "StatefulPartitionedCall/cnn_forecast_ensemble/model_12/conv1d_19/Conv1D/ExpandDims_1", "op": "Const", "attr": {"value": {"tensor": {"dtype": "DT_FLOAT", "tensorShape": {"dim": [{"size": "1"}, {"size": "3"}, {"size": "32"}, {"size": "32"}]}}}, "dtype": {"type": "DT_FLOAT"}}}, {"name": "StatefulPartitionedCall/cnn_forecast_ensemble/model_12/conv1d_19/Conv1D/BatchToSpaceND/block_shape", "op": "Const", "attr": {"value": {"tensor": {"dtype": "DT_INT32", "tensorShape": {"dim": [{"size": "1"}]}}}, "dtype": {"type": "DT_INT32"}}}, {"name": "StatefulPartitionedCall/cnn_forecast_ensemble/model_12/conv1d_19/Conv1D/BatchToSpaceND/crops", "op": "Const", "attr": {"value": {"tensor": {"dtype": "DT_INT32", "tensorShape": {"dim": [{"size": "1"}, {"size": "2"}]}}}, "dtype": {"type": "DT_INT32"}}}, {"name": "StatefulPartitionedCall/cnn_forecast_ensemble/model_12/conv1d_19/BiasAdd/ReadVariableOp", "op": "Const", "attr": {"value": {"tensor": {"dtype": "DT_FLOAT", "tensorShape": {"dim": [{"size": "32"}]}}}, "dtype": {"type": "DT_FLOAT"}}}, {"name": "StatefulPartitionedCall/cnn_forecast_ensemble/model_12/batch_normalization_15/batchnorm/mul", "op": "Const", "attr": {"value": {"tensor": {"dtype": "DT_FLOAT", "tensorShape": {"dim": [{"size": "32"}]}}}, "dtype": {"type": "DT_FLOAT"}}}, {"name": "StatefulPartitionedCall/cnn_forecast_ensemble/model_12/batch_normalization_15/batchnorm/sub", "op": "Const", "attr": {"value": {"tensor": {"dtype": "DT_FLOAT", "tensorShape": {"dim": [{"size": "32"}]}}}, "dtype": {"type": "DT_FLOAT"}}}, {"name": "StatefulPartitionedCall/cnn_forecast_ensemble/model_12/global_average_pooling1d_3/Mean/reduction_indices", "op": "Const", "attr": {"value": {"tensor": {"dtype": "DT_INT32", "tensorShape": {}}}, "dtype": {"type": "DT_INT32"}}}, {"name": "StatefulPartitionedCall/cnn_forecast_ensemble/model_12/dense_14/MatMul/ReadVariableOp", "op": "Const", "attr": {"value": {"tensor": {"dtype": "DT_FLOAT", "tensorShape": {"dim": [{"size": "32"}, {"size": "64"}]}}}, "dtype": {"type": "DT_FLOAT"}}}, {"name": "StatefulPartitionedCall/cnn_forecast_ensemble/model_12/dense_14/BiasAdd/ReadVariableOp", "op": "Const", "attr": {"value": {"tensor": {"dtype": "DT_FLOAT", "tensorShape": {"dim": [{"size": "64"}]}}}, "dtype": {"type": "DT_FLOAT"}}}, {"name": "StatefulPartitionedCall/cnn_forecast_ensemble/model_12/dense_15/MatMul/ReadVariableOp", "op": "Const", "attr": {"value": {"tensor": {"dtype": "DT_FLOAT", "tensorShape": {"dim": [{"size": "64"}, {"size": "8"}]}}}, "dtype": {"type": "DT_FLOAT"}}}, {"name": "StatefulPartitionedCall/cnn_forecast_ensemble/model_12/dense_15/BiasAdd/ReadVariableOp", "op": "Const", "attr": {"value": {"tensor": {"dtype": "DT_FLOAT", "tensorShape": {"dim": [{"size": "8"}]}}}, "dtype": {"type": "DT_FLOAT"}}}, {"name": "ConstantFolding/StatefulPartitionedCall/cnn_forecast_ensemble/model_12/average_4/truediv_recip", "op": "Const", "attr": {"value": {"tensor": {"dtype": "DT_FLOAT", "tensorShape": {}}}, "dtype": {"type": "DT_FLOAT"}}}, {"name": "unknown_45", "op": "Const", "attr": {"value": {"tensor": {"dtype": "DT_FLOAT", "tensorShape": {"dim": [{"size": "8"}, {"size": "3"}]}}}, "dtype": {"type": "DT_FLOAT"}}}, {"name": "StatefulPartitionedCall/cnn_forecast_ensemble/normalize3/Sum/reduction_indices", "op": "Const", "attr": {"value": {"tensor": {"dtype": "DT_INT32", "tensorShape": {}}}, "dtype": {"type": "DT_INT32"}}}, {"name": "ConstantFolding/StatefulPartitionedCall/cnn_forecast_ensemble/ensemble_avg/truediv_recip", "op": "Const", "attr": {"value": {"tensor": {"dtype": "DT_FLOAT", "tensorShape": {}}}, "dtype": {"type": "DT_FLOAT"}}}, {"name": "img_input", "op": "Placeholder", "attr": {"shape": {"shape": {"dim": [{"size": "-1"}, {"size": "224"}, {"size": "224"}, {"size": "3"}]}}, "dtype": {"type": "DT_FLOAT"}}}, {"name": "ts_input1", "op": "Placeholder", "attr": {"shape": {"shape": {"dim": [{"size": "-1"}, {"size": "24"}, {"size": "18"}]}}, "dtype": {"type": "DT_FLOAT"}}}, {"name": "StatefulPartitionedCall/cnn_forecast_ensemble/sequential/inception_v3/conv2d_57/Conv2D_weights", "op": "Const", "attr": {"value": {"tensor": {"dtype": "DT_FLOAT", "tensorShape": {"dim": [{"size": "7"}, {"size": "1"}, {"size": "160"}, {"size": "160"}]}}}, "dtype": {"type": "DT_FLOAT"}}}, {"name": "StatefulPartitionedCall/cnn_forecast_ensemble/sequential/inception_v3/conv2d_81/Conv2D_bn_offset", "op": "Const", "attr": {"value": {"tensor": {"dtype": "DT_FLOAT", "tensorShape": {"dim": [{"size": "384"}]}}}, "dtype": {"type": "DT_FLOAT"}}}, {"name": "StatefulPartitionedCall/cnn_forecast_ensemble/sequential/inception_v3/conv2d_57/Conv2D_bn_offset", "op": "Const", "attr": {"value": {"tensor": {"dtype": "DT_FLOAT", "tensorShape": {"dim": [{"size": "160"}]}}}, "dtype": {"type": "DT_FLOAT"}}}, {"name": "StatefulPartitionedCall/cnn_forecast_ensemble/sequential/inception_v3/conv2d_58/Conv2D_weights", "op": "Const", "attr": {"value": {"tensor": {"dtype": "DT_FLOAT", "tensorShape": {"dim": [{"size": "1"}, {"size": "7"}, {"size": "160"}, {"size": "192"}]}}}, "dtype": {"type": "DT_FLOAT"}}}, {"name": "ts_input2", "op": "Placeholder", "attr": {"shape": {"shape": {"dim": [{"size": "-1"}, {"size": "24"}, {"size": "18"}]}}, "dtype": {"type": "DT_FLOAT"}}}, {"name": "StatefulPartitionedCall/cnn_forecast_ensemble/sequential/inception_v3/conv2d_58/Conv2D_bn_offset", "op": "Const", "attr": {"value": {"tensor": {"dtype": "DT_FLOAT", "tensorShape": {"dim": [{"size": "192"}]}}}, "dtype": {"type": "DT_FLOAT"}}}, {"name": "StatefulPartitionedCall/cnn_forecast_ensemble/sequential/inception_v3/conv2d_82/Conv2D_weights", "op": "Const", "attr": {"value": {"tensor": {"dtype": "DT_FLOAT", "tensorShape": {"dim": [{"size": "1"}, {"size": "3"}, {"size": "384"}, {"size": "384"}]}}}, "dtype": {"type": "DT_FLOAT"}}}, {"name": "StatefulPartitionedCall/cnn_forecast_ensemble/sequential/inception_v3/conv2d/Conv2D_weights", "op": "Const", "attr": {"value": {"tensor": {"dtype": "DT_FLOAT", "tensorShape": {"dim": [{"size": "3"}, {"size": "3"}, {"size": "3"}, {"size": "32"}]}}}, "dtype": {"type": "DT_FLOAT"}}}, {"name": "StatefulPartitionedCall/cnn_forecast_ensemble/sequential/inception_v3/conv2d_60/Conv2D_weights", "op": "Const", "attr": {"value": {"tensor": {"dtype": "DT_FLOAT", "tensorShape": {"dim": [{"size": "1"}, {"size": "1"}, {"size": "768"}, {"size": "192"}]}}}, "dtype": {"type": "DT_FLOAT"}}}, {"name": "StatefulPartitionedCall/cnn_forecast_ensemble/sequential/inception_v3/conv2d/Conv2D_bn_offset", "op": "Const", "attr": {"value": {"tensor": {"dtype": "DT_FLOAT", "tensorShape": {"dim": [{"size": "32"}]}}}, "dtype": {"type": "DT_FLOAT"}}}, {"name": "StatefulPartitionedCall/cnn_forecast_ensemble/sequential/inception_v3/conv2d_91/Conv2D_weights", "op": "Const", "attr": {"value": {"tensor": {"dtype": "DT_FLOAT", "tensorShape": {"dim": [{"size": "1"}, {"size": "3"}, {"size": "384"}, {"size": "384"}]}}}, "dtype": {"type": "DT_FLOAT"}}}, {"name": "StatefulPartitionedCall/cnn_forecast_ensemble/sequential/inception_v3/conv2d_1/Conv2D_weights", "op": "Const", "attr": {"value": {"tensor": {"dtype": "DT_FLOAT", "tensorShape": {"dim": [{"size": "3"}, {"size": "3"}, {"size": "32"}, {"size": "32"}]}}}, "dtype": {"type": "DT_FLOAT"}}}, {"name": "StatefulPartitionedCall/cnn_forecast_ensemble/sequential/inception_v3/conv2d_60/Conv2D_bn_offset", "op": "Const", "attr": {"value": {"tensor": {"dtype": "DT_FLOAT", "tensorShape": {"dim": [{"size": "192"}]}}}, "dtype": {"type": "DT_FLOAT"}}}, {"name": "StatefulPartitionedCall/cnn_forecast_ensemble/sequential/inception_v3/conv2d_1/Conv2D_bn_offset", "op": "Const", "attr": {"value": {"tensor": {"dtype": "DT_FLOAT", "tensorShape": {"dim": [{"size": "32"}]}}}, "dtype": {"type": "DT_FLOAT"}}}, {"name": "StatefulPartitionedCall/cnn_forecast_ensemble/sequential/inception_v3/conv2d_82/Conv2D_bn_offset", "op": "Const", "attr": {"value": {"tensor": {"dtype": "DT_FLOAT", "tensorShape": {"dim": [{"size": "384"}]}}}, "dtype": {"type": "DT_FLOAT"}}}, {"name": "StatefulPartitionedCall/cnn_forecast_ensemble/sequential/inception_v3/conv2d_2/Conv2D_weights", "op": "Const", "attr": {"value": {"tensor": {"dtype": "DT_FLOAT", "tensorShape": {"dim": [{"size": "3"}, {"size": "3"}, {"size": "32"}, {"size": "64"}]}}}, "dtype": {"type": "DT_FLOAT"}}}, {"name": "StatefulPartitionedCall/cnn_forecast_ensemble/sequential/inception_v3/conv2d_2/Conv2D_bn_offset", "op": "Const", "attr": {"value": {"tensor": {"dtype": "DT_FLOAT", "tensorShape": {"dim": [{"size": "64"}]}}}, "dtype": {"type": "DT_FLOAT"}}}, {"name": "StatefulPartitionedCall/cnn_forecast_ensemble/sequential/inception_v3/conv2d_61/Conv2D_weights", "op": "Const", "attr": {"value": {"tensor": {"dtype": "DT_FLOAT", "tensorShape": {"dim": [{"size": "1"}, {"size": "1"}, {"size": "768"}, {"size": "192"}]}}}, "dtype": {"type": "DT_FLOAT"}}}, {"name": "StatefulPartitionedCall/cnn_forecast_ensemble/sequential/inception_v3/conv2d_3/Conv2D_weights", "op": "Const", "attr": {"value": {"tensor": {"dtype": "DT_FLOAT", "tensorShape": {"dim": [{"size": "1"}, {"size": "1"}, {"size": "64"}, {"size": "80"}]}}}, "dtype": {"type": "DT_FLOAT"}}}, {"name": "StatefulPartitionedCall/cnn_forecast_ensemble/sequential/inception_v3/conv2d_3/Conv2D_bn_offset", "op": "Const", "attr": {"value": {"tensor": {"dtype": "DT_FLOAT", "tensorShape": {"dim": [{"size": "80"}]}}}, "dtype": {"type": "DT_FLOAT"}}}, {"name": "StatefulPartitionedCall/cnn_forecast_ensemble/sequential/inception_v3/conv2d_61/Conv2D_bn_offset", "op": "Const", "attr": {"value": {"tensor": {"dtype": "DT_FLOAT", "tensorShape": {"dim": [{"size": "192"}]}}}, "dtype": {"type": "DT_FLOAT"}}}, {"name": "StatefulPartitionedCall/cnn_forecast_ensemble/sequential/inception_v3/conv2d_4/Conv2D_weights", "op": "Const", "attr": {"value": {"tensor": {"dtype": "DT_FLOAT", "tensorShape": {"dim": [{"size": "3"}, {"size": "3"}, {"size": "80"}, {"size": "192"}]}}}, "dtype": {"type": "DT_FLOAT"}}}, {"name": "StatefulPartitionedCall/cnn_forecast_ensemble/sequential/inception_v3/conv2d_4/Conv2D_bn_offset", "op": "Const", "attr": {"value": {"tensor": {"dtype": "DT_FLOAT", "tensorShape": {"dim": [{"size": "192"}]}}}, "dtype": {"type": "DT_FLOAT"}}}, {"name": "StatefulPartitionedCall/cnn_forecast_ensemble/sequential/inception_v3/conv2d_5/Conv2D_weights", "op": "Const", "attr": {"value": {"tensor": {"dtype": "DT_FLOAT", "tensorShape": {"dim": [{"size": "1"}, {"size": "1"}, {"size": "192"}, {"size": "64"}]}}}, "dtype": {"type": "DT_FLOAT"}}}, {"name": "StatefulPartitionedCall/cnn_forecast_ensemble/sequential/inception_v3/conv2d_64/Conv2D_weights", "op": "Const", "attr": {"value": {"tensor": {"dtype": "DT_FLOAT", "tensorShape": {"dim": [{"size": "1"}, {"size": "1"}, {"size": "768"}, {"size": "192"}]}}}, "dtype": {"type": "DT_FLOAT"}}}, {"name": "StatefulPartitionedCall/cnn_forecast_ensemble/sequential/inception_v3/conv2d_5/Conv2D_bn_offset", "op": "Const", "attr": {"value": {"tensor": {"dtype": "DT_FLOAT", "tensorShape": {"dim": [{"size": "64"}]}}}, "dtype": {"type": "DT_FLOAT"}}}, {"name": "StatefulPartitionedCall/cnn_forecast_ensemble/sequential/inception_v3/conv2d_83/Conv2D_weights", "op": "Const", "attr": {"value": {"tensor": {"dtype": "DT_FLOAT", "tensorShape": {"dim": [{"size": "3"}, {"size": "1"}, {"size": "384"}, {"size": "384"}]}}}, "dtype": {"type": "DT_FLOAT"}}}, {"name": "StatefulPartitionedCall/cnn_forecast_ensemble/sequential/inception_v3/conv2d_6/Conv2D_weights", "op": "Const", "attr": {"value": {"tensor": {"dtype": "DT_FLOAT", "tensorShape": {"dim": [{"size": "1"}, {"size": "1"}, {"size": "192"}, {"size": "48"}]}}}, "dtype": {"type": "DT_FLOAT"}}}, {"name": "StatefulPartitionedCall/cnn_forecast_ensemble/sequential/inception_v3/conv2d_64/Conv2D_bn_offset", "op": "Const", "attr": {"value": {"tensor": {"dtype": "DT_FLOAT", "tensorShape": {"dim": [{"size": "192"}]}}}, "dtype": {"type": "DT_FLOAT"}}}, {"name": "StatefulPartitionedCall/cnn_forecast_ensemble/sequential/inception_v3/conv2d_6/Conv2D_bn_offset", "op": "Const", "attr": {"value": {"tensor": {"dtype": "DT_FLOAT", "tensorShape": {"dim": [{"size": "48"}]}}}, "dtype": {"type": "DT_FLOAT"}}}, {"name": "StatefulPartitionedCall/cnn_forecast_ensemble/sequential/inception_v3/conv2d_91/Conv2D_bn_offset", "op": "Const", "attr": {"value": {"tensor": {"dtype": "DT_FLOAT", "tensorShape": {"dim": [{"size": "384"}]}}}, "dtype": {"type": "DT_FLOAT"}}}, {"name": "StatefulPartitionedCall/cnn_forecast_ensemble/sequential/inception_v3/conv2d_8/Conv2D_weights", "op": "Const", "attr": {"value": {"tensor": {"dtype": "DT_FLOAT", "tensorShape": {"dim": [{"size": "1"}, {"size": "1"}, {"size": "192"}, {"size": "64"}]}}}, "dtype": {"type": "DT_FLOAT"}}}, {"name": "StatefulPartitionedCall/cnn_forecast_ensemble/sequential/inception_v3/conv2d_8/Conv2D_bn_offset", "op": "Const", "attr": {"value": {"tensor": {"dtype": "DT_FLOAT", "tensorShape": {"dim": [{"size": "64"}]}}}, "dtype": {"type": "DT_FLOAT"}}}, {"name": "StatefulPartitionedCall/cnn_forecast_ensemble/sequential/inception_v3/conv2d_69/Conv2D_weights", "op": "Const", "attr": {"value": {"tensor": {"dtype": "DT_FLOAT", "tensorShape": {"dim": [{"size": "1"}, {"size": "1"}, {"size": "768"}, {"size": "192"}]}}}, "dtype": {"type": "DT_FLOAT"}}}, {"name": "StatefulPartitionedCall/cnn_forecast_ensemble/sequential/inception_v3/conv2d_11/Conv2D_weights", "op": "Const", "attr": {"value": {"tensor": {"dtype": "DT_FLOAT", "tensorShape": {"dim": [{"size": "1"}, {"size": "1"}, {"size": "192"}, {"size": "32"}]}}}, "dtype": {"type": "DT_FLOAT"}}}, {"name": "StatefulPartitionedCall/cnn_forecast_ensemble/sequential/inception_v3/conv2d_83/Conv2D_bn_offset", "op": "Const", "attr": {"value": {"tensor": {"dtype": "DT_FLOAT", "tensorShape": {"dim": [{"size": "384"}]}}}, "dtype": {"type": "DT_FLOAT"}}}, {"name": "StatefulPartitionedCall/cnn_forecast_ensemble/sequential/inception_v3/conv2d_11/Conv2D_bn_offset", "op": "Const", "attr": {"value": {"tensor": {"dtype": "DT_FLOAT", "tensorShape": {"dim": [{"size": "32"}]}}}, "dtype": {"type": "DT_FLOAT"}}}, {"name": "StatefulPartitionedCall/cnn_forecast_ensemble/sequential/inception_v3/conv2d_69/Conv2D_bn_offset", "op": "Const", "attr": {"value": {"tensor": {"dtype": "DT_FLOAT", "tensorShape": {"dim": [{"size": "192"}]}}}, "dtype": {"type": "DT_FLOAT"}}}, {"name": "StatefulPartitionedCall/cnn_forecast_ensemble/sequential/inception_v3/conv2d_7/Conv2D_weights", "op": "Const", "attr": {"value": {"tensor": {"dtype": "DT_FLOAT", "tensorShape": {"dim": [{"size": "5"}, {"size": "5"}, {"size": "48"}, {"size": "64"}]}}}, "dtype": {"type": "DT_FLOAT"}}}, {"name": "StatefulPartitionedCall/cnn_forecast_ensemble/sequential/inception_v3/conv2d_7/Conv2D_bn_offset", "op": "Const", "attr": {"value": {"tensor": {"dtype": "DT_FLOAT", "tensorShape": {"dim": [{"size": "64"}]}}}, "dtype": {"type": "DT_FLOAT"}}}, {"name": "StatefulPartitionedCall/cnn_forecast_ensemble/sequential/inception_v3/conv2d_9/Conv2D_weights", "op": "Const", "attr": {"value": {"tensor": {"dtype": "DT_FLOAT", "tensorShape": {"dim": [{"size": "3"}, {"size": "3"}, {"size": "64"}, {"size": "96"}]}}}, "dtype": {"type": "DT_FLOAT"}}}, {"name": "StatefulPartitionedCall/cnn_forecast_ensemble/sequential/inception_v3/conv2d_62/Conv2D_weights", "op": "Const", "attr": {"value": {"tensor": {"dtype": "DT_FLOAT", "tensorShape": {"dim": [{"size": "1"}, {"size": "7"}, {"size": "192"}, {"size": "192"}]}}}, "dtype": {"type": "DT_FLOAT"}}}, {"name": "StatefulPartitionedCall/cnn_forecast_ensemble/sequential/inception_v3/conv2d_9/Conv2D_bn_offset", "op": "Const", "attr": {"value": {"tensor": {"dtype": "DT_FLOAT", "tensorShape": {"dim": [{"size": "96"}]}}}, "dtype": {"type": "DT_FLOAT"}}}, {"name": "StatefulPartitionedCall/cnn_forecast_ensemble/sequential/inception_v3/conv2d_10/Conv2D_weights", "op": "Const", "attr": {"value": {"tensor": {"dtype": "DT_FLOAT", "tensorShape": {"dim": [{"size": "3"}, {"size": "3"}, {"size": "96"}, {"size": "96"}]}}}, "dtype": {"type": "DT_FLOAT"}}}, {"name": "StatefulPartitionedCall/cnn_forecast_ensemble/sequential/inception_v3/conv2d_62/Conv2D_bn_offset", "op": "Const", "attr": {"value": {"tensor": {"dtype": "DT_FLOAT", "tensorShape": {"dim": [{"size": "192"}]}}}, "dtype": {"type": "DT_FLOAT"}}}, {"name": "StatefulPartitionedCall/cnn_forecast_ensemble/sequential/inception_v3/conv2d_10/Conv2D_bn_offset", "op": "Const", "attr": {"value": {"tensor": {"dtype": "DT_FLOAT", "tensorShape": {"dim": [{"size": "96"}]}}}, "dtype": {"type": "DT_FLOAT"}}}, {"name": "StatefulPartitionedCall/cnn_forecast_ensemble/sequential/inception_v3/conv2d_12/Conv2D_weights", "op": "Const", "attr": {"value": {"tensor": {"dtype": "DT_FLOAT", "tensorShape": {"dim": [{"size": "1"}, {"size": "1"}, {"size": "256"}, {"size": "64"}]}}}, "dtype": {"type": "DT_FLOAT"}}}, {"name": "StatefulPartitionedCall/cnn_forecast_ensemble/sequential/inception_v3/conv2d_12/Conv2D_bn_offset", "op": "Const", "attr": {"value": {"tensor": {"dtype": "DT_FLOAT", "tensorShape": {"dim": [{"size": "64"}]}}}, "dtype": {"type": "DT_FLOAT"}}}, {"name": "StatefulPartitionedCall/cnn_forecast_ensemble/sequential/inception_v3/conv2d_65/Conv2D_weights", "op": "Const", "attr": {"value": {"tensor": {"dtype": "DT_FLOAT", "tensorShape": {"dim": [{"size": "7"}, {"size": "1"}, {"size": "192"}, {"size": "192"}]}}}, "dtype": {"type": "DT_FLOAT"}}}, {"name": "StatefulPartitionedCall/cnn_forecast_ensemble/sequential/inception_v3/conv2d_13/Conv2D_weights", "op": "Const", "attr": {"value": {"tensor": {"dtype": "DT_FLOAT", "tensorShape": {"dim": [{"size": "1"}, {"size": "1"}, {"size": "256"}, {"size": "48"}]}}}, "dtype": {"type": "DT_FLOAT"}}}, {"name": "StatefulPartitionedCall/cnn_forecast_ensemble/sequential/inception_v3/conv2d_13/Conv2D_bn_offset", "op": "Const", "attr": {"value": {"tensor": {"dtype": "DT_FLOAT", "tensorShape": {"dim": [{"size": "48"}]}}}, "dtype": {"type": "DT_FLOAT"}}}, {"name": "StatefulPartitionedCall/cnn_forecast_ensemble/sequential/inception_v3/conv2d_65/Conv2D_bn_offset", "op": "Const", "attr": {"value": {"tensor": {"dtype": "DT_FLOAT", "tensorShape": {"dim": [{"size": "192"}]}}}, "dtype": {"type": "DT_FLOAT"}}}, {"name": "StatefulPartitionedCall/cnn_forecast_ensemble/sequential/inception_v3/conv2d_15/Conv2D_weights", "op": "Const", "attr": {"value": {"tensor": {"dtype": "DT_FLOAT", "tensorShape": {"dim": [{"size": "1"}, {"size": "1"}, {"size": "256"}, {"size": "64"}]}}}, "dtype": {"type": "DT_FLOAT"}}}, {"name": "StatefulPartitionedCall/cnn_forecast_ensemble/sequential/inception_v3/conv2d_85/Conv2D_weights", "op": "Const", "attr": {"value": {"tensor": {"dtype": "DT_FLOAT", "tensorShape": {"dim": [{"size": "1"}, {"size": "1"}, {"size": "2048"}, {"size": "320"}]}}}, "dtype": {"type": "DT_FLOAT"}}}, {"name": "StatefulPartitionedCall/cnn_forecast_ensemble/sequential/inception_v3/conv2d_15/Conv2D_bn_offset", "op": "Const", "attr": {"value": {"tensor": {"dtype": "DT_FLOAT", "tensorShape": {"dim": [{"size": "64"}]}}}, "dtype": {"type": "DT_FLOAT"}}}, {"name": "StatefulPartitionedCall/cnn_forecast_ensemble/sequential/inception_v3/conv2d_18/Conv2D_weights", "op": "Const", "attr": {"value": {"tensor": {"dtype": "DT_FLOAT", "tensorShape": {"dim": [{"size": "1"}, {"size": "1"}, {"size": "256"}, {"size": "64"}]}}}, "dtype": {"type": "DT_FLOAT"}}}, {"name": "StatefulPartitionedCall/cnn_forecast_ensemble/sequential/inception_v3/conv2d_63/Conv2D_weights", "op": "Const", "attr": {"value": {"tensor": {"dtype": "DT_FLOAT", "tensorShape": {"dim": [{"size": "7"}, {"size": "1"}, {"size": "192"}, {"size": "192"}]}}}, "dtype": {"type": "DT_FLOAT"}}}, {"name": "StatefulPartitionedCall/cnn_forecast_ensemble/sequential/inception_v3/conv2d_18/Conv2D_bn_offset", "op": "Const", "attr": {"value": {"tensor": {"dtype": "DT_FLOAT", "tensorShape": {"dim": [{"size": "64"}]}}}, "dtype": {"type": "DT_FLOAT"}}}, {"name": "StatefulPartitionedCall/cnn_forecast_ensemble/sequential/inception_v3/conv2d_14/Conv2D_weights", "op": "Const", "attr": {"value": {"tensor": {"dtype": "DT_FLOAT", "tensorShape": {"dim": [{"size": "5"}, {"size": "5"}, {"size": "48"}, {"size": "64"}]}}}, "dtype": {"type": "DT_FLOAT"}}}, {"name": "StatefulPartitionedCall/cnn_forecast_ensemble/sequential/inception_v3/conv2d_63/Conv2D_bn_offset", "op": "Const", "attr": {"value": {"tensor": {"dtype": "DT_FLOAT", "tensorShape": {"dim": [{"size": "192"}]}}}, "dtype": {"type": "DT_FLOAT"}}}, {"name": "StatefulPartitionedCall/cnn_forecast_ensemble/sequential/inception_v3/conv2d_14/Conv2D_bn_offset", "op": "Const", "attr": {"value": {"tensor": {"dtype": "DT_FLOAT", "tensorShape": {"dim": [{"size": "64"}]}}}, "dtype": {"type": "DT_FLOAT"}}}, {"name": "StatefulPartitionedCall/cnn_forecast_ensemble/sequential/inception_v3/conv2d_85/Conv2D_bn_offset", "op": "Const", "attr": {"value": {"tensor": {"dtype": "DT_FLOAT", "tensorShape": {"dim": [{"size": "320"}]}}}, "dtype": {"type": "DT_FLOAT"}}}, {"name": "StatefulPartitionedCall/cnn_forecast_ensemble/sequential/inception_v3/conv2d_16/Conv2D_weights", "op": "Const", "attr": {"value": {"tensor": {"dtype": "DT_FLOAT", "tensorShape": {"dim": [{"size": "3"}, {"size": "3"}, {"size": "64"}, {"size": "96"}]}}}, "dtype": {"type": "DT_FLOAT"}}}, {"name": "StatefulPartitionedCall/cnn_forecast_ensemble/sequential/inception_v3/conv2d_16/Conv2D_bn_offset", "op": "Const", "attr": {"value": {"tensor": {"dtype": "DT_FLOAT", "tensorShape": {"dim": [{"size": "96"}]}}}, "dtype": {"type": "DT_FLOAT"}}}, {"name": "StatefulPartitionedCall/cnn_forecast_ensemble/sequential/inception_v3/conv2d_66/Conv2D_weights", "op": "Const", "attr": {"value": {"tensor": {"dtype": "DT_FLOAT", "tensorShape": {"dim": [{"size": "1"}, {"size": "7"}, {"size": "192"}, {"size": "192"}]}}}, "dtype": {"type": "DT_FLOAT"}}}, {"name": "StatefulPartitionedCall/cnn_forecast_ensemble/sequential/inception_v3/conv2d_17/Conv2D_weights", "op": "Const", "attr": {"value": {"tensor": {"dtype": "DT_FLOAT", "tensorShape": {"dim": [{"size": "3"}, {"size": "3"}, {"size": "96"}, {"size": "96"}]}}}, "dtype": {"type": "DT_FLOAT"}}}, {"name": "StatefulPartitionedCall/cnn_forecast_ensemble/sequential/inception_v3/conv2d_92/Conv2D_weights", "op": "Const", "attr": {"value": {"tensor": {"dtype": "DT_FLOAT", "tensorShape": {"dim": [{"size": "3"}, {"size": "1"}, {"size": "384"}, {"size": "384"}]}}}, "dtype": {"type": "DT_FLOAT"}}}, {"name": "StatefulPartitionedCall/cnn_forecast_ensemble/sequential/inception_v3/conv2d_17/Conv2D_bn_offset", "op": "Const", "attr": {"value": {"tensor": {"dtype": "DT_FLOAT", "tensorShape": {"dim": [{"size": "96"}]}}}, "dtype": {"type": "DT_FLOAT"}}}, {"name": "StatefulPartitionedCall/cnn_forecast_ensemble/sequential/inception_v3/conv2d_66/Conv2D_bn_offset", "op": "Const", "attr": {"value": {"tensor": {"dtype": "DT_FLOAT", "tensorShape": {"dim": [{"size": "192"}]}}}, "dtype": {"type": "DT_FLOAT"}}}, {"name": "StatefulPartitionedCall/cnn_forecast_ensemble/sequential/inception_v3/conv2d_19/Conv2D_weights", "op": "Const", "attr": {"value": {"tensor": {"dtype": "DT_FLOAT", "tensorShape": {"dim": [{"size": "1"}, {"size": "1"}, {"size": "288"}, {"size": "64"}]}}}, "dtype": {"type": "DT_FLOAT"}}}, {"name": "StatefulPartitionedCall/cnn_forecast_ensemble/sequential/inception_v3/conv2d_19/Conv2D_bn_offset", "op": "Const", "attr": {"value": {"tensor": {"dtype": "DT_FLOAT", "tensorShape": {"dim": [{"size": "64"}]}}}, "dtype": {"type": "DT_FLOAT"}}}, {"name": "StatefulPartitionedCall/cnn_forecast_ensemble/sequential/inception_v3/conv2d_20/Conv2D_weights", "op": "Const", "attr": {"value": {"tensor": {"dtype": "DT_FLOAT", "tensorShape": {"dim": [{"size": "1"}, {"size": "1"}, {"size": "288"}, {"size": "48"}]}}}, "dtype": {"type": "DT_FLOAT"}}}, {"name": "StatefulPartitionedCall/cnn_forecast_ensemble/sequential/inception_v3/conv2d_67/Conv2D_weights", "op": "Const", "attr": {"value": {"tensor": {"dtype": "DT_FLOAT", "tensorShape": {"dim": [{"size": "7"}, {"size": "1"}, {"size": "192"}, {"size": "192"}]}}}, "dtype": {"type": "DT_FLOAT"}}}, {"name": "StatefulPartitionedCall/cnn_forecast_ensemble/sequential/inception_v3/conv2d_20/Conv2D_bn_offset", "op": "Const", "attr": {"value": {"tensor": {"dtype": "DT_FLOAT", "tensorShape": {"dim": [{"size": "48"}]}}}, "dtype": {"type": "DT_FLOAT"}}}, {"name": "StatefulPartitionedCall/cnn_forecast_ensemble/sequential/inception_v3/conv2d_86/Conv2D_weights", "op": "Const", "attr": {"value": {"tensor": {"dtype": "DT_FLOAT", "tensorShape": {"dim": [{"size": "1"}, {"size": "1"}, {"size": "2048"}, {"size": "384"}]}}}, "dtype": {"type": "DT_FLOAT"}}}, {"name": "StatefulPartitionedCall/cnn_forecast_ensemble/sequential/inception_v3/conv2d_22/Conv2D_weights", "op": "Const", "attr": {"value": {"tensor": {"dtype": "DT_FLOAT", "tensorShape": {"dim": [{"size": "1"}, {"size": "1"}, {"size": "288"}, {"size": "64"}]}}}, "dtype": {"type": "DT_FLOAT"}}}, {"name": "StatefulPartitionedCall/cnn_forecast_ensemble/sequential/inception_v3/conv2d_67/Conv2D_bn_offset", "op": "Const", "attr": {"value": {"tensor": {"dtype": "DT_FLOAT", "tensorShape": {"dim": [{"size": "192"}]}}}, "dtype": {"type": "DT_FLOAT"}}}, {"name": "StatefulPartitionedCall/cnn_forecast_ensemble/sequential/inception_v3/conv2d_22/Conv2D_bn_offset", "op": "Const", "attr": {"value": {"tensor": {"dtype": "DT_FLOAT", "tensorShape": {"dim": [{"size": "64"}]}}}, "dtype": {"type": "DT_FLOAT"}}}, {"name": "StatefulPartitionedCall/cnn_forecast_ensemble/sequential/inception_v3/conv2d_25/Conv2D_weights", "op": "Const", "attr": {"value": {"tensor": {"dtype": "DT_FLOAT", "tensorShape": {"dim": [{"size": "1"}, {"size": "1"}, {"size": "288"}, {"size": "64"}]}}}, "dtype": {"type": "DT_FLOAT"}}}, {"name": "StatefulPartitionedCall/cnn_forecast_ensemble/sequential/inception_v3/conv2d_25/Conv2D_bn_offset", "op": "Const", "attr": {"value": {"tensor": {"dtype": "DT_FLOAT", "tensorShape": {"dim": [{"size": "64"}]}}}, "dtype": {"type": "DT_FLOAT"}}}, {"name": "StatefulPartitionedCall/cnn_forecast_ensemble/sequential/inception_v3/conv2d_68/Conv2D_weights", "op": "Const", "attr": {"value": {"tensor": {"dtype": "DT_FLOAT", "tensorShape": {"dim": [{"size": "1"}, {"size": "7"}, {"size": "192"}, {"size": "192"}]}}}, "dtype": {"type": "DT_FLOAT"}}}, {"name": "StatefulPartitionedCall/cnn_forecast_ensemble/sequential/inception_v3/conv2d_21/Conv2D_weights", "op": "Const", "attr": {"value": {"tensor": {"dtype": "DT_FLOAT", "tensorShape": {"dim": [{"size": "5"}, {"size": "5"}, {"size": "48"}, {"size": "64"}]}}}, "dtype": {"type": "DT_FLOAT"}}}, {"name": "StatefulPartitionedCall/cnn_forecast_ensemble/sequential/inception_v3/conv2d_86/Conv2D_bn_offset", "op": "Const", "attr": {"value": {"tensor": {"dtype": "DT_FLOAT", "tensorShape": {"dim": [{"size": "384"}]}}}, "dtype": {"type": "DT_FLOAT"}}}, {"name": "StatefulPartitionedCall/cnn_forecast_ensemble/sequential/inception_v3/conv2d_21/Conv2D_bn_offset", "op": "Const", "attr": {"value": {"tensor": {"dtype": "DT_FLOAT", "tensorShape": {"dim": [{"size": "64"}]}}}, "dtype": {"type": "DT_FLOAT"}}}, {"name": "StatefulPartitionedCall/cnn_forecast_ensemble/sequential/inception_v3/conv2d_68/Conv2D_bn_offset", "op": "Const", "attr": {"value": {"tensor": {"dtype": "DT_FLOAT", "tensorShape": {"dim": [{"size": "192"}]}}}, "dtype": {"type": "DT_FLOAT"}}}, {"name": "StatefulPartitionedCall/cnn_forecast_ensemble/sequential/inception_v3/conv2d_23/Conv2D_weights", "op": "Const", "attr": {"value": {"tensor": {"dtype": "DT_FLOAT", "tensorShape": {"dim": [{"size": "3"}, {"size": "3"}, {"size": "64"}, {"size": "96"}]}}}, "dtype": {"type": "DT_FLOAT"}}}, {"name": "StatefulPartitionedCall/cnn_forecast_ensemble/sequential/inception_v3/conv2d_92/Conv2D_bn_offset", "op": "Const", "attr": {"value": {"tensor": {"dtype": "DT_FLOAT", "tensorShape": {"dim": [{"size": "384"}]}}}, "dtype": {"type": "DT_FLOAT"}}}, {"name": "StatefulPartitionedCall/cnn_forecast_ensemble/sequential/inception_v3/conv2d_23/Conv2D_bn_offset", "op": "Const", "attr": {"value": {"tensor": {"dtype": "DT_FLOAT", "tensorShape": {"dim": [{"size": "96"}]}}}, "dtype": {"type": "DT_FLOAT"}}}, {"name": "StatefulPartitionedCall/cnn_forecast_ensemble/sequential/inception_v3/conv2d_24/Conv2D_weights", "op": "Const", "attr": {"value": {"tensor": {"dtype": "DT_FLOAT", "tensorShape": {"dim": [{"size": "3"}, {"size": "3"}, {"size": "96"}, {"size": "96"}]}}}, "dtype": {"type": "DT_FLOAT"}}}, {"name": "StatefulPartitionedCall/cnn_forecast_ensemble/sequential/inception_v3/conv2d_24/Conv2D_bn_offset", "op": "Const", "attr": {"value": {"tensor": {"dtype": "DT_FLOAT", "tensorShape": {"dim": [{"size": "96"}]}}}, "dtype": {"type": "DT_FLOAT"}}}, {"name": "StatefulPartitionedCall/cnn_forecast_ensemble/sequential/inception_v3/conv2d_26/Conv2D_weights", "op": "Const", "attr": {"value": {"tensor": {"dtype": "DT_FLOAT", "tensorShape": {"dim": [{"size": "3"}, {"size": "3"}, {"size": "288"}, {"size": "384"}]}}}, "dtype": {"type": "DT_FLOAT"}}}, {"name": "StatefulPartitionedCall/cnn_forecast_ensemble/sequential/inception_v3/conv2d_70/Conv2D_weights", "op": "Const", "attr": {"value": {"tensor": {"dtype": "DT_FLOAT", "tensorShape": {"dim": [{"size": "1"}, {"size": "1"}, {"size": "768"}, {"size": "192"}]}}}, "dtype": {"type": "DT_FLOAT"}}}, {"name": "StatefulPartitionedCall/cnn_forecast_ensemble/sequential/inception_v3/conv2d_26/Conv2D_bn_offset", "op": "Const", "attr": {"value": {"tensor": {"dtype": "DT_FLOAT", "tensorShape": {"dim": [{"size": "384"}]}}}, "dtype": {"type": "DT_FLOAT"}}}, {"name": "StatefulPartitionedCall/cnn_forecast_ensemble/sequential/inception_v3/conv2d_27/Conv2D_weights", "op": "Const", "attr": {"value": {"tensor": {"dtype": "DT_FLOAT", "tensorShape": {"dim": [{"size": "1"}, {"size": "1"}, {"size": "288"}, {"size": "64"}]}}}, "dtype": {"type": "DT_FLOAT"}}}, {"name": "StatefulPartitionedCall/cnn_forecast_ensemble/sequential/inception_v3/conv2d_70/Conv2D_bn_offset", "op": "Const", "attr": {"value": {"tensor": {"dtype": "DT_FLOAT", "tensorShape": {"dim": [{"size": "192"}]}}}, "dtype": {"type": "DT_FLOAT"}}}, {"name": "StatefulPartitionedCall/cnn_forecast_ensemble/sequential/inception_v3/conv2d_27/Conv2D_bn_offset", "op": "Const", "attr": {"value": {"tensor": {"dtype": "DT_FLOAT", "tensorShape": {"dim": [{"size": "64"}]}}}, "dtype": {"type": "DT_FLOAT"}}}, {"name": "StatefulPartitionedCall/cnn_forecast_ensemble/sequential/inception_v3/conv2d_89/Conv2D_weights", "op": "Const", "attr": {"value": {"tensor": {"dtype": "DT_FLOAT", "tensorShape": {"dim": [{"size": "1"}, {"size": "1"}, {"size": "2048"}, {"size": "448"}]}}}, "dtype": {"type": "DT_FLOAT"}}}, {"name": "StatefulPartitionedCall/cnn_forecast_ensemble/sequential/inception_v3/conv2d_28/Conv2D_weights", "op": "Const", "attr": {"value": {"tensor": {"dtype": "DT_FLOAT", "tensorShape": {"dim": [{"size": "3"}, {"size": "3"}, {"size": "64"}, {"size": "96"}]}}}, "dtype": {"type": "DT_FLOAT"}}}, {"name": "StatefulPartitionedCall/cnn_forecast_ensemble/sequential/inception_v3/conv2d_28/Conv2D_bn_offset", "op": "Const", "attr": {"value": {"tensor": {"dtype": "DT_FLOAT", "tensorShape": {"dim": [{"size": "96"}]}}}, "dtype": {"type": "DT_FLOAT"}}}, {"name": "StatefulPartitionedCall/cnn_forecast_ensemble/sequential/inception_v3/conv2d_72/Conv2D_weights", "op": "Const", "attr": {"value": {"tensor": {"dtype": "DT_FLOAT", "tensorShape": {"dim": [{"size": "1"}, {"size": "1"}, {"size": "768"}, {"size": "192"}]}}}, "dtype": {"type": "DT_FLOAT"}}}, {"name": "StatefulPartitionedCall/cnn_forecast_ensemble/sequential/inception_v3/conv2d_29/Conv2D_weights", "op": "Const", "attr": {"value": {"tensor": {"dtype": "DT_FLOAT", "tensorShape": {"dim": [{"size": "3"}, {"size": "3"}, {"size": "96"}, {"size": "96"}]}}}, "dtype": {"type": "DT_FLOAT"}}}, {"name": "StatefulPartitionedCall/cnn_forecast_ensemble/sequential/inception_v3/conv2d_29/Conv2D_bn_offset", "op": "Const", "attr": {"value": {"tensor": {"dtype": "DT_FLOAT", "tensorShape": {"dim": [{"size": "96"}]}}}, "dtype": {"type": "DT_FLOAT"}}}, {"name": "StatefulPartitionedCall/cnn_forecast_ensemble/sequential/inception_v3/conv2d_72/Conv2D_bn_offset", "op": "Const", "attr": {"value": {"tensor": {"dtype": "DT_FLOAT", "tensorShape": {"dim": [{"size": "192"}]}}}, "dtype": {"type": "DT_FLOAT"}}}, {"name": "StatefulPartitionedCall/cnn_forecast_ensemble/sequential/inception_v3/conv2d_30/Conv2D_weights", "op": "Const", "attr": {"value": {"tensor": {"dtype": "DT_FLOAT", "tensorShape": {"dim": [{"size": "1"}, {"size": "1"}, {"size": "768"}, {"size": "192"}]}}}, "dtype": {"type": "DT_FLOAT"}}}, {"name": "StatefulPartitionedCall/cnn_forecast_ensemble/sequential/inception_v3/conv2d_89/Conv2D_bn_offset", "op": "Const", "attr": {"value": {"tensor": {"dtype": "DT_FLOAT", "tensorShape": {"dim": [{"size": "448"}]}}}, "dtype": {"type": "DT_FLOAT"}}}, {"name": "StatefulPartitionedCall/cnn_forecast_ensemble/sequential/inception_v3/conv2d_30/Conv2D_bn_offset", "op": "Const", "attr": {"value": {"tensor": {"dtype": "DT_FLOAT", "tensorShape": {"dim": [{"size": "192"}]}}}, "dtype": {"type": "DT_FLOAT"}}}, {"name": "StatefulPartitionedCall/cnn_forecast_ensemble/sequential/inception_v3/conv2d_31/Conv2D_weights", "op": "Const", "attr": {"value": {"tensor": {"dtype": "DT_FLOAT", "tensorShape": {"dim": [{"size": "1"}, {"size": "1"}, {"size": "768"}, {"size": "128"}]}}}, "dtype": {"type": "DT_FLOAT"}}}, {"name": "StatefulPartitionedCall/cnn_forecast_ensemble/sequential/inception_v3/conv2d_71/Conv2D_weights", "op": "Const", "attr": {"value": {"tensor": {"dtype": "DT_FLOAT", "tensorShape": {"dim": [{"size": "3"}, {"size": "3"}, {"size": "192"}, {"size": "320"}]}}}, "dtype": {"type": "DT_FLOAT"}}}, {"name": "StatefulPartitionedCall/cnn_forecast_ensemble/sequential/inception_v3/conv2d_31/Conv2D_bn_offset", "op": "Const", "attr": {"value": {"tensor": {"dtype": "DT_FLOAT", "tensorShape": {"dim": [{"size": "128"}]}}}, "dtype": {"type": "DT_FLOAT"}}}, {"name": "StatefulPartitionedCall/cnn_forecast_ensemble/sequential/inception_v3/conv2d_34/Conv2D_weights", "op": "Const", "attr": {"value": {"tensor": {"dtype": "DT_FLOAT", "tensorShape": {"dim": [{"size": "1"}, {"size": "1"}, {"size": "768"}, {"size": "128"}]}}}, "dtype": {"type": "DT_FLOAT"}}}, {"name": "StatefulPartitionedCall/cnn_forecast_ensemble/sequential/inception_v3/conv2d_71/Conv2D_bn_offset", "op": "Const", "attr": {"value": {"tensor": {"dtype": "DT_FLOAT", "tensorShape": {"dim": [{"size": "320"}]}}}, "dtype": {"type": "DT_FLOAT"}}}, {"name": "StatefulPartitionedCall/cnn_forecast_ensemble/sequential/inception_v3/conv2d_34/Conv2D_bn_offset", "op": "Const", "attr": {"value": {"tensor": {"dtype": "DT_FLOAT", "tensorShape": {"dim": [{"size": "128"}]}}}, "dtype": {"type": "DT_FLOAT"}}}, {"name": "StatefulPartitionedCall/cnn_forecast_ensemble/sequential/inception_v3/conv2d_39/Conv2D_weights", "op": "Const", "attr": {"value": {"tensor": {"dtype": "DT_FLOAT", "tensorShape": {"dim": [{"size": "1"}, {"size": "1"}, {"size": "768"}, {"size": "192"}]}}}, "dtype": {"type": "DT_FLOAT"}}}, {"name": "StatefulPartitionedCall/cnn_forecast_ensemble/sequential/inception_v3/conv2d_39/Conv2D_bn_offset", "op": "Const", "attr": {"value": {"tensor": {"dtype": "DT_FLOAT", "tensorShape": {"dim": [{"size": "192"}]}}}, "dtype": {"type": "DT_FLOAT"}}}, {"name": "StatefulPartitionedCall/cnn_forecast_ensemble/sequential/inception_v3/conv2d_73/Conv2D_weights", "op": "Const", "attr": {"value": {"tensor": {"dtype": "DT_FLOAT", "tensorShape": {"dim": [{"size": "1"}, {"size": "7"}, {"size": "192"}, {"size": "192"}]}}}, "dtype": {"type": "DT_FLOAT"}}}, {"name": "StatefulPartitionedCall/cnn_forecast_ensemble/sequential/inception_v3/conv2d_32/Conv2D_weights", "op": "Const", "attr": {"value": {"tensor": {"dtype": "DT_FLOAT", "tensorShape": {"dim": [{"size": "1"}, {"size": "7"}, {"size": "128"}, {"size": "128"}]}}}, "dtype": {"type": "DT_FLOAT"}}}, {"name": "StatefulPartitionedCall/cnn_forecast_ensemble/sequential/inception_v3/conv2d_93/Conv2D_weights", "op": "Const", "attr": {"value": {"tensor": {"dtype": "DT_FLOAT", "tensorShape": {"dim": [{"size": "1"}, {"size": "1"}, {"size": "2048"}, {"size": "192"}]}}}, "dtype": {"type": "DT_FLOAT"}}}, {"name": "StatefulPartitionedCall/cnn_forecast_ensemble/sequential/inception_v3/conv2d_32/Conv2D_bn_offset", "op": "Const", "attr": {"value": {"tensor": {"dtype": "DT_FLOAT", "tensorShape": {"dim": [{"size": "128"}]}}}, "dtype": {"type": "DT_FLOAT"}}}, {"name": "StatefulPartitionedCall/cnn_forecast_ensemble/sequential/inception_v3/conv2d_73/Conv2D_bn_offset", "op": "Const", "attr": {"value": {"tensor": {"dtype": "DT_FLOAT", "tensorShape": {"dim": [{"size": "192"}]}}}, "dtype": {"type": "DT_FLOAT"}}}, {"name": "StatefulPartitionedCall/cnn_forecast_ensemble/sequential/inception_v3/conv2d_35/Conv2D_weights", "op": "Const", "attr": {"value": {"tensor": {"dtype": "DT_FLOAT", "tensorShape": {"dim": [{"size": "7"}, {"size": "1"}, {"size": "128"}, {"size": "128"}]}}}, "dtype": {"type": "DT_FLOAT"}}}, {"name": "StatefulPartitionedCall/cnn_forecast_ensemble/sequential/inception_v3/conv2d_35/Conv2D_bn_offset", "op": "Const", "attr": {"value": {"tensor": {"dtype": "DT_FLOAT", "tensorShape": {"dim": [{"size": "128"}]}}}, "dtype": {"type": "DT_FLOAT"}}}, {"name": "StatefulPartitionedCall/cnn_forecast_ensemble/sequential/inception_v3/conv2d_33/Conv2D_weights", "op": "Const", "attr": {"value": {"tensor": {"dtype": "DT_FLOAT", "tensorShape": {"dim": [{"size": "7"}, {"size": "1"}, {"size": "128"}, {"size": "192"}]}}}, "dtype": {"type": "DT_FLOAT"}}}, {"name": "StatefulPartitionedCall/cnn_forecast_ensemble/sequential/inception_v3/conv2d_74/Conv2D_weights", "op": "Const", "attr": {"value": {"tensor": {"dtype": "DT_FLOAT", "tensorShape": {"dim": [{"size": "7"}, {"size": "1"}, {"size": "192"}, {"size": "192"}]}}}, "dtype": {"type": "DT_FLOAT"}}}, {"name": "StatefulPartitionedCall/cnn_forecast_ensemble/sequential/inception_v3/conv2d_33/Conv2D_bn_offset", "op": "Const", "attr": {"value": {"tensor": {"dtype": "DT_FLOAT", "tensorShape": {"dim": [{"size": "192"}]}}}, "dtype": {"type": "DT_FLOAT"}}}, {"name": "StatefulPartitionedCall/cnn_forecast_ensemble/sequential/inception_v3/conv2d_93/Conv2D_bn_offset", "op": "Const", "attr": {"value": {"tensor": {"dtype": "DT_FLOAT", "tensorShape": {"dim": [{"size": "192"}]}}}, "dtype": {"type": "DT_FLOAT"}}}, {"name": "StatefulPartitionedCall/cnn_forecast_ensemble/sequential/inception_v3/conv2d_36/Conv2D_weights", "op": "Const", "attr": {"value": {"tensor": {"dtype": "DT_FLOAT", "tensorShape": {"dim": [{"size": "1"}, {"size": "7"}, {"size": "128"}, {"size": "128"}]}}}, "dtype": {"type": "DT_FLOAT"}}}, {"name": "StatefulPartitionedCall/cnn_forecast_ensemble/sequential/inception_v3/conv2d_74/Conv2D_bn_offset", "op": "Const", "attr": {"value": {"tensor": {"dtype": "DT_FLOAT", "tensorShape": {"dim": [{"size": "192"}]}}}, "dtype": {"type": "DT_FLOAT"}}}, {"name": "StatefulPartitionedCall/cnn_forecast_ensemble/sequential/inception_v3/conv2d_36/Conv2D_bn_offset", "op": "Const", "attr": {"value": {"tensor": {"dtype": "DT_FLOAT", "tensorShape": {"dim": [{"size": "128"}]}}}, "dtype": {"type": "DT_FLOAT"}}}, {"name": "StatefulPartitionedCall/cnn_forecast_ensemble/sequential/inception_v3/conv2d_37/Conv2D_weights", "op": "Const", "attr": {"value": {"tensor": {"dtype": "DT_FLOAT", "tensorShape": {"dim": [{"size": "7"}, {"size": "1"}, {"size": "128"}, {"size": "128"}]}}}, "dtype": {"type": "DT_FLOAT"}}}, {"name": "StatefulPartitionedCall/cnn_forecast_ensemble/sequential/inception_v3/conv2d_37/Conv2D_bn_offset", "op": "Const", "attr": {"value": {"tensor": {"dtype": "DT_FLOAT", "tensorShape": {"dim": [{"size": "128"}]}}}, "dtype": {"type": "DT_FLOAT"}}}, {"name": "StatefulPartitionedCall/cnn_forecast_ensemble/sequential/inception_v3/conv2d_75/Conv2D_weights", "op": "Const", "attr": {"value": {"tensor": {"dtype": "DT_FLOAT", "tensorShape": {"dim": [{"size": "3"}, {"size": "3"}, {"size": "192"}, {"size": "192"}]}}}, "dtype": {"type": "DT_FLOAT"}}}, {"name": "StatefulPartitionedCall/cnn_forecast_ensemble/sequential/inception_v3/conv2d_38/Conv2D_weights", "op": "Const", "attr": {"value": {"tensor": {"dtype": "DT_FLOAT", "tensorShape": {"dim": [{"size": "1"}, {"size": "7"}, {"size": "128"}, {"size": "192"}]}}}, "dtype": {"type": "DT_FLOAT"}}}, {"name": "StatefulPartitionedCall/cnn_forecast_ensemble/sequential/inception_v3/conv2d_38/Conv2D_bn_offset", "op": "Const", "attr": {"value": {"tensor": {"dtype": "DT_FLOAT", "tensorShape": {"dim": [{"size": "192"}]}}}, "dtype": {"type": "DT_FLOAT"}}}, {"name": "StatefulPartitionedCall/cnn_forecast_ensemble/sequential/inception_v3/conv2d_75/Conv2D_bn_offset", "op": "Const", "attr": {"value": {"tensor": {"dtype": "DT_FLOAT", "tensorShape": {"dim": [{"size": "192"}]}}}, "dtype": {"type": "DT_FLOAT"}}}, {"name": "StatefulPartitionedCall/cnn_forecast_ensemble/sequential/inception_v3/conv2d_40/Conv2D_weights", "op": "Const", "attr": {"value": {"tensor": {"dtype": "DT_FLOAT", "tensorShape": {"dim": [{"size": "1"}, {"size": "1"}, {"size": "768"}, {"size": "192"}]}}}, "dtype": {"type": "DT_FLOAT"}}}, {"name": "StatefulPartitionedCall/cnn_forecast_ensemble/sequential/inception_v3/conv2d_87/Conv2D_weights", "op": "Const", "attr": {"value": {"tensor": {"dtype": "DT_FLOAT", "tensorShape": {"dim": [{"size": "1"}, {"size": "3"}, {"size": "384"}, {"size": "384"}]}}}, "dtype": {"type": "DT_FLOAT"}}}, {"name": "StatefulPartitionedCall/cnn_forecast_ensemble/sequential/inception_v3/conv2d_40/Conv2D_bn_offset", "op": "Const", "attr": {"value": {"tensor": {"dtype": "DT_FLOAT", "tensorShape": {"dim": [{"size": "192"}]}}}, "dtype": {"type": "DT_FLOAT"}}}, {"name": "StatefulPartitionedCall/cnn_forecast_ensemble/sequential/inception_v3/conv2d_41/Conv2D_weights", "op": "Const", "attr": {"value": {"tensor": {"dtype": "DT_FLOAT", "tensorShape": {"dim": [{"size": "1"}, {"size": "1"}, {"size": "768"}, {"size": "160"}]}}}, "dtype": {"type": "DT_FLOAT"}}}, {"name": "StatefulPartitionedCall/cnn_forecast_ensemble/sequential/inception_v3/conv2d_41/Conv2D_bn_offset", "op": "Const", "attr": {"value": {"tensor": {"dtype": "DT_FLOAT", "tensorShape": {"dim": [{"size": "160"}]}}}, "dtype": {"type": "DT_FLOAT"}}}, {"name": "StatefulPartitionedCall/cnn_forecast_ensemble/sequential/inception_v3/conv2d_44/Conv2D_weights", "op": "Const", "attr": {"value": {"tensor": {"dtype": "DT_FLOAT", "tensorShape": {"dim": [{"size": "1"}, {"size": "1"}, {"size": "768"}, {"size": "160"}]}}}, "dtype": {"type": "DT_FLOAT"}}}, {"name": "StatefulPartitionedCall/cnn_forecast_ensemble/sequential/inception_v3/conv2d_76/Conv2D_weights", "op": "Const", "attr": {"value": {"tensor": {"dtype": "DT_FLOAT", "tensorShape": {"dim": [{"size": "1"}, {"size": "1"}, {"size": "1280"}, {"size": "320"}]}}}, "dtype": {"type": "DT_FLOAT"}}}, {"name": "StatefulPartitionedCall/cnn_forecast_ensemble/sequential/inception_v3/conv2d_44/Conv2D_bn_offset", "op": "Const", "attr": {"value": {"tensor": {"dtype": "DT_FLOAT", "tensorShape": {"dim": [{"size": "160"}]}}}, "dtype": {"type": "DT_FLOAT"}}}, {"name": "StatefulPartitionedCall/cnn_forecast_ensemble/sequential/inception_v3/conv2d_49/Conv2D_weights", "op": "Const", "attr": {"value": {"tensor": {"dtype": "DT_FLOAT", "tensorShape": {"dim": [{"size": "1"}, {"size": "1"}, {"size": "768"}, {"size": "192"}]}}}, "dtype": {"type": "DT_FLOAT"}}}, {"name": "StatefulPartitionedCall/cnn_forecast_ensemble/sequential/inception_v3/conv2d_76/Conv2D_bn_offset", "op": "Const", "attr": {"value": {"tensor": {"dtype": "DT_FLOAT", "tensorShape": {"dim": [{"size": "320"}]}}}, "dtype": {"type": "DT_FLOAT"}}}, {"name": "StatefulPartitionedCall/cnn_forecast_ensemble/sequential/inception_v3/conv2d_49/Conv2D_bn_offset", "op": "Const", "attr": {"value": {"tensor": {"dtype": "DT_FLOAT", "tensorShape": {"dim": [{"size": "192"}]}}}, "dtype": {"type": "DT_FLOAT"}}}, {"name": "StatefulPartitionedCall/cnn_forecast_ensemble/sequential/inception_v3/conv2d_87/Conv2D_bn_offset", "op": "Const", "attr": {"value": {"tensor": {"dtype": "DT_FLOAT", "tensorShape": {"dim": [{"size": "384"}]}}}, "dtype": {"type": "DT_FLOAT"}}}, {"name": "StatefulPartitionedCall/cnn_forecast_ensemble/sequential/inception_v3/conv2d_42/Conv2D_weights", "op": "Const", "attr": {"value": {"tensor": {"dtype": "DT_FLOAT", "tensorShape": {"dim": [{"size": "1"}, {"size": "7"}, {"size": "160"}, {"size": "160"}]}}}, "dtype": {"type": "DT_FLOAT"}}}, {"name": "StatefulPartitionedCall/cnn_forecast_ensemble/sequential/inception_v3/conv2d_42/Conv2D_bn_offset", "op": "Const", "attr": {"value": {"tensor": {"dtype": "DT_FLOAT", "tensorShape": {"dim": [{"size": "160"}]}}}, "dtype": {"type": "DT_FLOAT"}}}, {"name": "StatefulPartitionedCall/cnn_forecast_ensemble/sequential/inception_v3/conv2d_77/Conv2D_weights", "op": "Const", "attr": {"value": {"tensor": {"dtype": "DT_FLOAT", "tensorShape": {"dim": [{"size": "1"}, {"size": "1"}, {"size": "1280"}, {"size": "384"}]}}}, "dtype": {"type": "DT_FLOAT"}}}, {"name": "StatefulPartitionedCall/cnn_forecast_ensemble/sequential/inception_v3/conv2d_45/Conv2D_weights", "op": "Const", "attr": {"value": {"tensor": {"dtype": "DT_FLOAT", "tensorShape": {"dim": [{"size": "7"}, {"size": "1"}, {"size": "160"}, {"size": "160"}]}}}, "dtype": {"type": "DT_FLOAT"}}}, {"name": "StatefulPartitionedCall/cnn_forecast_ensemble/sequential/inception_v3/conv2d_45/Conv2D_bn_offset", "op": "Const", "attr": {"value": {"tensor": {"dtype": "DT_FLOAT", "tensorShape": {"dim": [{"size": "160"}]}}}, "dtype": {"type": "DT_FLOAT"}}}, {"name": "StatefulPartitionedCall/cnn_forecast_ensemble/sequential/inception_v3/conv2d_77/Conv2D_bn_offset", "op": "Const", "attr": {"value": {"tensor": {"dtype": "DT_FLOAT", "tensorShape": {"dim": [{"size": "384"}]}}}, "dtype": {"type": "DT_FLOAT"}}}, {"name": "StatefulPartitionedCall/cnn_forecast_ensemble/sequential/inception_v3/conv2d_43/Conv2D_weights", "op": "Const", "attr": {"value": {"tensor": {"dtype": "DT_FLOAT", "tensorShape": {"dim": [{"size": "7"}, {"size": "1"}, {"size": "160"}, {"size": "192"}]}}}, "dtype": {"type": "DT_FLOAT"}}}, {"name": "StatefulPartitionedCall/cnn_forecast_ensemble/sequential/inception_v3/conv2d_43/Conv2D_bn_offset", "op": "Const", "attr": {"value": {"tensor": {"dtype": "DT_FLOAT", "tensorShape": {"dim": [{"size": "192"}]}}}, "dtype": {"type": "DT_FLOAT"}}}, {"name": "StatefulPartitionedCall/cnn_forecast_ensemble/sequential/inception_v3/conv2d_46/Conv2D_weights", "op": "Const", "attr": {"value": {"tensor": {"dtype": "DT_FLOAT", "tensorShape": {"dim": [{"size": "1"}, {"size": "7"}, {"size": "160"}, {"size": "160"}]}}}, "dtype": {"type": "DT_FLOAT"}}}, {"name": "StatefulPartitionedCall/cnn_forecast_ensemble/sequential/inception_v3/conv2d_80/Conv2D_weights", "op": "Const", "attr": {"value": {"tensor": {"dtype": "DT_FLOAT", "tensorShape": {"dim": [{"size": "1"}, {"size": "1"}, {"size": "1280"}, {"size": "448"}]}}}, "dtype": {"type": "DT_FLOAT"}}}, {"name": "StatefulPartitionedCall/cnn_forecast_ensemble/sequential/inception_v3/conv2d_46/Conv2D_bn_offset", "op": "Const", "attr": {"value": {"tensor": {"dtype": "DT_FLOAT", "tensorShape": {"dim": [{"size": "160"}]}}}, "dtype": {"type": "DT_FLOAT"}}}, {"name": "StatefulPartitionedCall/cnn_forecast_ensemble/sequential/inception_v3/conv2d_88/Conv2D_weights", "op": "Const", "attr": {"value": {"tensor": {"dtype": "DT_FLOAT", "tensorShape": {"dim": [{"size": "3"}, {"size": "1"}, {"size": "384"}, {"size": "384"}]}}}, "dtype": {"type": "DT_FLOAT"}}}, {"name": "StatefulPartitionedCall/cnn_forecast_ensemble/sequential/inception_v3/conv2d_47/Conv2D_weights", "op": "Const", "attr": {"value": {"tensor": {"dtype": "DT_FLOAT", "tensorShape": {"dim": [{"size": "7"}, {"size": "1"}, {"size": "160"}, {"size": "160"}]}}}, "dtype": {"type": "DT_FLOAT"}}}, {"name": "StatefulPartitionedCall/cnn_forecast_ensemble/sequential/inception_v3/conv2d_80/Conv2D_bn_offset", "op": "Const", "attr": {"value": {"tensor": {"dtype": "DT_FLOAT", "tensorShape": {"dim": [{"size": "448"}]}}}, "dtype": {"type": "DT_FLOAT"}}}, {"name": "StatefulPartitionedCall/cnn_forecast_ensemble/sequential/inception_v3/conv2d_47/Conv2D_bn_offset", "op": "Const", "attr": {"value": {"tensor": {"dtype": "DT_FLOAT", "tensorShape": {"dim": [{"size": "160"}]}}}, "dtype": {"type": "DT_FLOAT"}}}, {"name": "StatefulPartitionedCall/cnn_forecast_ensemble/sequential/inception_v3/conv2d_48/Conv2D_weights", "op": "Const", "attr": {"value": {"tensor": {"dtype": "DT_FLOAT", "tensorShape": {"dim": [{"size": "1"}, {"size": "7"}, {"size": "160"}, {"size": "192"}]}}}, "dtype": {"type": "DT_FLOAT"}}}, {"name": "StatefulPartitionedCall/cnn_forecast_ensemble/sequential/inception_v3/conv2d_48/Conv2D_bn_offset", "op": "Const", "attr": {"value": {"tensor": {"dtype": "DT_FLOAT", "tensorShape": {"dim": [{"size": "192"}]}}}, "dtype": {"type": "DT_FLOAT"}}}, {"name": "StatefulPartitionedCall/cnn_forecast_ensemble/sequential/inception_v3/conv2d_84/Conv2D_weights", "op": "Const", "attr": {"value": {"tensor": {"dtype": "DT_FLOAT", "tensorShape": {"dim": [{"size": "1"}, {"size": "1"}, {"size": "1280"}, {"size": "192"}]}}}, "dtype": {"type": "DT_FLOAT"}}}, {"name": "StatefulPartitionedCall/cnn_forecast_ensemble/sequential/inception_v3/conv2d_50/Conv2D_weights", "op": "Const", "attr": {"value": {"tensor": {"dtype": "DT_FLOAT", "tensorShape": {"dim": [{"size": "1"}, {"size": "1"}, {"size": "768"}, {"size": "192"}]}}}, "dtype": {"type": "DT_FLOAT"}}}, {"name": "StatefulPartitionedCall/cnn_forecast_ensemble/sequential/inception_v3/conv2d_88/Conv2D_bn_offset", "op": "Const", "attr": {"value": {"tensor": {"dtype": "DT_FLOAT", "tensorShape": {"dim": [{"size": "384"}]}}}, "dtype": {"type": "DT_FLOAT"}}}, {"name": "StatefulPartitionedCall/cnn_forecast_ensemble/sequential/inception_v3/conv2d_50/Conv2D_bn_offset", "op": "Const", "attr": {"value": {"tensor": {"dtype": "DT_FLOAT", "tensorShape": {"dim": [{"size": "192"}]}}}, "dtype": {"type": "DT_FLOAT"}}}, {"name": "StatefulPartitionedCall/cnn_forecast_ensemble/sequential/inception_v3/conv2d_84/Conv2D_bn_offset", "op": "Const", "attr": {"value": {"tensor": {"dtype": "DT_FLOAT", "tensorShape": {"dim": [{"size": "192"}]}}}, "dtype": {"type": "DT_FLOAT"}}}, {"name": "StatefulPartitionedCall/cnn_forecast_ensemble/sequential/inception_v3/conv2d_51/Conv2D_weights", "op": "Const", "attr": {"value": {"tensor": {"dtype": "DT_FLOAT", "tensorShape": {"dim": [{"size": "1"}, {"size": "1"}, {"size": "768"}, {"size": "160"}]}}}, "dtype": {"type": "DT_FLOAT"}}}, {"name": "StatefulPartitionedCall/cnn_forecast_ensemble/sequential/inception_v3/conv2d_51/Conv2D_bn_offset", "op": "Const", "attr": {"value": {"tensor": {"dtype": "DT_FLOAT", "tensorShape": {"dim": [{"size": "160"}]}}}, "dtype": {"type": "DT_FLOAT"}}}, {"name": "StatefulPartitionedCall/cnn_forecast_ensemble/sequential/inception_v3/conv2d_54/Conv2D_weights", "op": "Const", "attr": {"value": {"tensor": {"dtype": "DT_FLOAT", "tensorShape": {"dim": [{"size": "1"}, {"size": "1"}, {"size": "768"}, {"size": "160"}]}}}, "dtype": {"type": "DT_FLOAT"}}}, {"name": "StatefulPartitionedCall/cnn_forecast_ensemble/sequential/inception_v3/conv2d_78/Conv2D_weights", "op": "Const", "attr": {"value": {"tensor": {"dtype": "DT_FLOAT", "tensorShape": {"dim": [{"size": "1"}, {"size": "3"}, {"size": "384"}, {"size": "384"}]}}}, "dtype": {"type": "DT_FLOAT"}}}, {"name": "StatefulPartitionedCall/cnn_forecast_ensemble/sequential/inception_v3/conv2d_54/Conv2D_bn_offset", "op": "Const", "attr": {"value": {"tensor": {"dtype": "DT_FLOAT", "tensorShape": {"dim": [{"size": "160"}]}}}, "dtype": {"type": "DT_FLOAT"}}}, {"name": "StatefulPartitionedCall/cnn_forecast_ensemble/sequential/inception_v3/conv2d_59/Conv2D_weights", "op": "Const", "attr": {"value": {"tensor": {"dtype": "DT_FLOAT", "tensorShape": {"dim": [{"size": "1"}, {"size": "1"}, {"size": "768"}, {"size": "192"}]}}}, "dtype": {"type": "DT_FLOAT"}}}, {"name": "StatefulPartitionedCall/cnn_forecast_ensemble/sequential/inception_v3/conv2d_78/Conv2D_bn_offset", "op": "Const", "attr": {"value": {"tensor": {"dtype": "DT_FLOAT", "tensorShape": {"dim": [{"size": "384"}]}}}, "dtype": {"type": "DT_FLOAT"}}}, {"name": "StatefulPartitionedCall/cnn_forecast_ensemble/sequential/inception_v3/conv2d_59/Conv2D_bn_offset", "op": "Const", "attr": {"value": {"tensor": {"dtype": "DT_FLOAT", "tensorShape": {"dim": [{"size": "192"}]}}}, "dtype": {"type": "DT_FLOAT"}}}, {"name": "StatefulPartitionedCall/cnn_forecast_ensemble/sequential/inception_v3/conv2d_90/Conv2D_weights", "op": "Const", "attr": {"value": {"tensor": {"dtype": "DT_FLOAT", "tensorShape": {"dim": [{"size": "3"}, {"size": "3"}, {"size": "448"}, {"size": "384"}]}}}, "dtype": {"type": "DT_FLOAT"}}}, {"name": "StatefulPartitionedCall/cnn_forecast_ensemble/sequential/inception_v3/conv2d_52/Conv2D_weights", "op": "Const", "attr": {"value": {"tensor": {"dtype": "DT_FLOAT", "tensorShape": {"dim": [{"size": "1"}, {"size": "7"}, {"size": "160"}, {"size": "160"}]}}}, "dtype": {"type": "DT_FLOAT"}}}, {"name": "StatefulPartitionedCall/cnn_forecast_ensemble/sequential/inception_v3/conv2d_52/Conv2D_bn_offset", "op": "Const", "attr": {"value": {"tensor": {"dtype": "DT_FLOAT", "tensorShape": {"dim": [{"size": "160"}]}}}, "dtype": {"type": "DT_FLOAT"}}}, {"name": "StatefulPartitionedCall/cnn_forecast_ensemble/sequential/inception_v3/conv2d_79/Conv2D_weights", "op": "Const", "attr": {"value": {"tensor": {"dtype": "DT_FLOAT", "tensorShape": {"dim": [{"size": "3"}, {"size": "1"}, {"size": "384"}, {"size": "384"}]}}}, "dtype": {"type": "DT_FLOAT"}}}, {"name": "StatefulPartitionedCall/cnn_forecast_ensemble/sequential/inception_v3/conv2d_55/Conv2D_weights", "op": "Const", "attr": {"value": {"tensor": {"dtype": "DT_FLOAT", "tensorShape": {"dim": [{"size": "7"}, {"size": "1"}, {"size": "160"}, {"size": "160"}]}}}, "dtype": {"type": "DT_FLOAT"}}}, {"name": "StatefulPartitionedCall/cnn_forecast_ensemble/sequential/inception_v3/conv2d_55/Conv2D_bn_offset", "op": "Const", "attr": {"value": {"tensor": {"dtype": "DT_FLOAT", "tensorShape": {"dim": [{"size": "160"}]}}}, "dtype": {"type": "DT_FLOAT"}}}, {"name": "StatefulPartitionedCall/cnn_forecast_ensemble/sequential/inception_v3/conv2d_79/Conv2D_bn_offset", "op": "Const", "attr": {"value": {"tensor": {"dtype": "DT_FLOAT", "tensorShape": {"dim": [{"size": "384"}]}}}, "dtype": {"type": "DT_FLOAT"}}}, {"name": "StatefulPartitionedCall/cnn_forecast_ensemble/sequential/inception_v3/conv2d_53/Conv2D_weights", "op": "Const", "attr": {"value": {"tensor": {"dtype": "DT_FLOAT", "tensorShape": {"dim": [{"size": "7"}, {"size": "1"}, {"size": "160"}, {"size": "192"}]}}}, "dtype": {"type": "DT_FLOAT"}}}, {"name": "StatefulPartitionedCall/cnn_forecast_ensemble/sequential/inception_v3/conv2d_90/Conv2D_bn_offset", "op": "Const", "attr": {"value": {"tensor": {"dtype": "DT_FLOAT", "tensorShape": {"dim": [{"size": "384"}]}}}, "dtype": {"type": "DT_FLOAT"}}}, {"name": "StatefulPartitionedCall/cnn_forecast_ensemble/sequential/inception_v3/conv2d_53/Conv2D_bn_offset", "op": "Const", "attr": {"value": {"tensor": {"dtype": "DT_FLOAT", "tensorShape": {"dim": [{"size": "192"}]}}}, "dtype": {"type": "DT_FLOAT"}}}, {"name": "StatefulPartitionedCall/cnn_forecast_ensemble/sequential/inception_v3/conv2d_56/Conv2D_weights", "op": "Const", "attr": {"value": {"tensor": {"dtype": "DT_FLOAT", "tensorShape": {"dim": [{"size": "1"}, {"size": "7"}, {"size": "160"}, {"size": "160"}]}}}, "dtype": {"type": "DT_FLOAT"}}}, {"name": "StatefulPartitionedCall/cnn_forecast_ensemble/sequential/inception_v3/conv2d_81/Conv2D_weights", "op": "Const", "attr": {"value": {"tensor": {"dtype": "DT_FLOAT", "tensorShape": {"dim": [{"size": "3"}, {"size": "3"}, {"size": "448"}, {"size": "384"}]}}}, "dtype": {"type": "DT_FLOAT"}}}, {"name": "StatefulPartitionedCall/cnn_forecast_ensemble/sequential/inception_v3/conv2d_56/Conv2D_bn_offset", "op": "Const", "attr": {"value": {"tensor": {"dtype": "DT_FLOAT", "tensorShape": {"dim": [{"size": "160"}]}}}, "dtype": {"type": "DT_FLOAT"}}}, {"name": "StatefulPartitionedCall/cnn_forecast_ensemble/model_12/bidirectional_7/forward_lstm_7/PartitionedCall/TensorArrayV2_1", "op": "TensorListReserve", "input": ["StatefulPartitionedCall/cnn_forecast_ensemble/model_12/bidirectional_7/forward_lstm_7/PartitionedCall/TensorArrayV2_1/element_shape", "StatefulPartitionedCall/cnn_forecast_ensemble/model_12/bidirectional_7/forward_lstm_7/PartitionedCall/TensorArrayV2_1/num_elements"], "attr": {"shape_type": {"type": "DT_INT32"}, "element_dtype": {"type": "DT_FLOAT"}}, "experimentalType": {"typeId": "TFT_PRODUCT", "args": [{"typeId": "TFT_ARRAY", "args": [{"typeId": "TFT_TENSOR", "args": [{"typeId": "TFT_FLOAT"}]}]}]}}, {"name": "StatefulPartitionedCall/cnn_forecast_ensemble/model_12/bidirectional_7/forward_lstm_7/PartitionedCall/while/enter/_614", "op": "Enter", "input": ["StatefulPartitionedCall/cnn_forecast_ensemble/model_12/bidirectional_7/forward_lstm_7/Read/ReadVariableOp"], "attr": {"is_constant": {"b": false}, "frame_name": {"s": "U3RhdGVmdWxQYXJ0aXRpb25lZENhbGwvY25uX2ZvcmVjYXN0X2Vuc2VtYmxlL21vZGVsXzEyL2JpZGlyZWN0aW9uYWxfNy9mb3J3YXJkX2xzdG1fNy9QYXJ0aXRpb25lZENhbGwvd2hpbGU="}, "T": {"type": "DT_FLOAT"}, "parallel_iterations": {"i": "32"}}}, {"name": "StatefulPartitionedCall/cnn_forecast_ensemble/model_12/bidirectional_7/forward_lstm_7/PartitionedCall/while/enter/_615", "op": "Enter", "input": ["StatefulPartitionedCall/cnn_forecast_ensemble/model_12/bidirectional_7/forward_lstm_7/Read_1/ReadVariableOp"], "attr": {"is_constant": {"b": false}, "frame_name": {"s": "U3RhdGVmdWxQYXJ0aXRpb25lZENhbGwvY25uX2ZvcmVjYXN0X2Vuc2VtYmxlL21vZGVsXzEyL2JpZGlyZWN0aW9uYWxfNy9mb3J3YXJkX2xzdG1fNy9QYXJ0aXRpb25lZENhbGwvd2hpbGU="}, "T": {"type": "DT_FLOAT"}, "parallel_iterations": {"i": "32"}}}, {"name": "StatefulPartitionedCall/cnn_forecast_ensemble/model_12/bidirectional_7/forward_lstm_7/PartitionedCall/while/enter/_616", "op": "Enter", "input": ["StatefulPartitionedCall/cnn_forecast_ensemble/model_12/bidirectional_7/forward_lstm_7/Read_2/ReadVariableOp"], "attr": {"is_constant": {"b": false}, "frame_name": {"s": "U3RhdGVmdWxQYXJ0aXRpb25lZENhbGwvY25uX2ZvcmVjYXN0X2Vuc2VtYmxlL21vZGVsXzEyL2JpZGlyZWN0aW9uYWxfNy9mb3J3YXJkX2xzdG1fNy9QYXJ0aXRpb25lZENhbGwvd2hpbGU="}, "T": {"type": "DT_FLOAT"}, "parallel_iterations": {"i": "32"}}}, {"name": "StatefulPartitionedCall/cnn_forecast_ensemble/model_12/bidirectional_7/forward_lstm_7/PartitionedCall/while/enter/_608", "op": "Enter", "input": ["StatefulPartitionedCall/cnn_forecast_ensemble/model_12/bidirectional_7/forward_lstm_7/PartitionedCall/time"], "attr": {"is_constant": {"b": false}, "frame_name": {"s": "U3RhdGVmdWxQYXJ0aXRpb25lZENhbGwvY25uX2ZvcmVjYXN0X2Vuc2VtYmxlL21vZGVsXzEyL2JpZGlyZWN0aW9uYWxfNy9mb3J3YXJkX2xzdG1fNy9QYXJ0aXRpb25lZENhbGwvd2hpbGU="}, "T": {"type": "DT_INT32"}, "parallel_iterations": {"i": "32"}}}, {"name": "StatefulPartitionedCall/cnn_forecast_ensemble/model_12/bidirectional_7/forward_lstm_7/PartitionedCall/while/enter/_606", "op": "Enter", "input": ["StatefulPartitionedCall/cnn_forecast_ensemble/model_12/bidirectional_7/forward_lstm_7/PartitionedCall/while/loop_counter"], "attr": {"is_constant": {"b": false}, "frame_name": {"s": "U3RhdGVmdWxQYXJ0aXRpb25lZENhbGwvY25uX2ZvcmVjYXN0X2Vuc2VtYmxlL21vZGVsXzEyL2JpZGlyZWN0aW9uYWxfNy9mb3J3YXJkX2xzdG1fNy9QYXJ0aXRpb25lZENhbGwvd2hpbGU="}, "T": {"type": "DT_INT32"}, "parallel_iterations": {"i": "32"}}}, {"name": "StatefulPartitionedCall/cnn_forecast_ensemble/model_12/bidirectional_7/backward_lstm_7/PartitionedCall/TensorArrayV2_1", "op": "TensorListReserve", "input": ["StatefulPartitionedCall/cnn_forecast_ensemble/model_12/bidirectional_7/backward_lstm_7/PartitionedCall/TensorArrayV2_1/element_shape", "StatefulPartitionedCall/cnn_forecast_ensemble/model_12/bidirectional_7/backward_lstm_7/PartitionedCall/TensorArrayV2_1/num_elements"], "attr": {"shape_type": {"type": "DT_INT32"}, "element_dtype": {"type": "DT_FLOAT"}}, "experimentalType": {"typeId": "TFT_PRODUCT", "args": [{"typeId": "TFT_ARRAY", "args": [{"typeId": "TFT_TENSOR", "args": [{"typeId": "TFT_FLOAT"}]}]}]}}, {"name": "StatefulPartitionedCall/cnn_forecast_ensemble/model_12/bidirectional_7/backward_lstm_7/PartitionedCall/while/enter/_674", "op": "Enter", "input": ["StatefulPartitionedCall/cnn_forecast_ensemble/model_12/bidirectional_7/backward_lstm_7/Read/ReadVariableOp"], "attr": {"is_constant": {"b": false}, "frame_name": {"s": "U3RhdGVmdWxQYXJ0aXRpb25lZENhbGwvY25uX2ZvcmVjYXN0X2Vuc2VtYmxlL21vZGVsXzEyL2JpZGlyZWN0aW9uYWxfNy9iYWNrd2FyZF9sc3RtXzcvUGFydGl0aW9uZWRDYWxsL3doaWxl"}, "T": {"type": "DT_FLOAT"}, "parallel_iterations": {"i": "32"}}}, {"name": "StatefulPartitionedCall/cnn_forecast_ensemble/model_12/bidirectional_7/backward_lstm_7/PartitionedCall/while/enter/_675", "op": "Enter", "input": ["StatefulPartitionedCall/cnn_forecast_ensemble/model_12/bidirectional_7/backward_lstm_7/Read_1/ReadVariableOp"], "attr": {"is_constant": {"b": false}, "frame_name": {"s": "U3RhdGVmdWxQYXJ0aXRpb25lZENhbGwvY25uX2ZvcmVjYXN0X2Vuc2VtYmxlL21vZGVsXzEyL2JpZGlyZWN0aW9uYWxfNy9iYWNrd2FyZF9sc3RtXzcvUGFydGl0aW9uZWRDYWxsL3doaWxl"}, "T": {"type": "DT_FLOAT"}, "parallel_iterations": {"i": "32"}}}, {"name": "StatefulPartitionedCall/cnn_forecast_ensemble/model_12/bidirectional_7/backward_lstm_7/PartitionedCall/while/enter/_676", "op": "Enter", "input": ["StatefulPartitionedCall/cnn_forecast_ensemble/model_12/bidirectional_7/backward_lstm_7/Read_2/ReadVariableOp"], "attr": {"is_constant": {"b": false}, "frame_name": {"s": "U3RhdGVmdWxQYXJ0aXRpb25lZENhbGwvY25uX2ZvcmVjYXN0X2Vuc2VtYmxlL21vZGVsXzEyL2JpZGlyZWN0aW9uYWxfNy9iYWNrd2FyZF9sc3RtXzcvUGFydGl0aW9uZWRDYWxsL3doaWxl"}, "T": {"type": "DT_FLOAT"}, "parallel_iterations": {"i": "32"}}}, {"name": "StatefulPartitionedCall/cnn_forecast_ensemble/model_12/bidirectional_7/backward_lstm_7/PartitionedCall/while/enter/_668", "op": "Enter", "input": ["StatefulPartitionedCall/cnn_forecast_ensemble/model_12/bidirectional_7/backward_lstm_7/PartitionedCall/time"], "attr": {"is_constant": {"b": false}, "frame_name": {"s": "U3RhdGVmdWxQYXJ0aXRpb25lZENhbGwvY25uX2ZvcmVjYXN0X2Vuc2VtYmxlL21vZGVsXzEyL2JpZGlyZWN0aW9uYWxfNy9iYWNrd2FyZF9sc3RtXzcvUGFydGl0aW9uZWRDYWxsL3doaWxl"}, "T": {"type": "DT_INT32"}, "parallel_iterations": {"i": "32"}}}, {"name": "StatefulPartitionedCall/cnn_forecast_ensemble/model_12/bidirectional_6/forward_lstm_6/PartitionedCall/while/enter/_494", "op": "Enter", "input": ["StatefulPartitionedCall/cnn_forecast_ensemble/model_12/bidirectional_6/forward_lstm_6/Read/ReadVariableOp"], "attr": {"is_constant": {"b": false}, "frame_name": {"s": "U3RhdGVmdWxQYXJ0aXRpb25lZENhbGwvY25uX2ZvcmVjYXN0X2Vuc2VtYmxlL21vZGVsXzEyL2JpZGlyZWN0aW9uYWxfNi9mb3J3YXJkX2xzdG1fNi9QYXJ0aXRpb25lZENhbGwvd2hpbGU="}, "T": {"type": "DT_FLOAT"}, "parallel_iterations": {"i": "32"}}}, {"name": "StatefulPartitionedCall/cnn_forecast_ensemble/model_12/bidirectional_6/forward_lstm_6/PartitionedCall/while/enter/_495", "op": "Enter", "input": ["StatefulPartitionedCall/cnn_forecast_ensemble/model_12/bidirectional_6/forward_lstm_6/Read_1/ReadVariableOp"], "attr": {"is_constant": {"b": false}, "frame_name": {"s": "U3RhdGVmdWxQYXJ0aXRpb25lZENhbGwvY25uX2ZvcmVjYXN0X2Vuc2VtYmxlL21vZGVsXzEyL2JpZGlyZWN0aW9uYWxfNi9mb3J3YXJkX2xzdG1fNi9QYXJ0aXRpb25lZENhbGwvd2hpbGU="}, "T": {"type": "DT_FLOAT"}, "parallel_iterations": {"i": "32"}}}, {"name": "StatefulPartitionedCall/cnn_forecast_ensemble/model_12/bidirectional_6/forward_lstm_6/PartitionedCall/while/enter/_496", "op": "Enter", "input": ["StatefulPartitionedCall/cnn_forecast_ensemble/model_12/bidirectional_6/forward_lstm_6/Read_2/ReadVariableOp"], "attr": {"is_constant": {"b": false}, "frame_name": {"s": "U3RhdGVmdWxQYXJ0aXRpb25lZENhbGwvY25uX2ZvcmVjYXN0X2Vuc2VtYmxlL21vZGVsXzEyL2JpZGlyZWN0aW9uYWxfNi9mb3J3YXJkX2xzdG1fNi9QYXJ0aXRpb25lZENhbGwvd2hpbGU="}, "T": {"type": "DT_FLOAT"}, "parallel_iterations": {"i": "32"}}}, {"name": "StatefulPartitionedCall/cnn_forecast_ensemble/model_12/bidirectional_6/forward_lstm_6/PartitionedCall/while/enter/_488", "op": "Enter", "input": ["StatefulPartitionedCall/cnn_forecast_ensemble/model_12/bidirectional_6/forward_lstm_6/PartitionedCall/time"], "attr": {"is_constant": {"b": false}, "frame_name": {"s": "U3RhdGVmdWxQYXJ0aXRpb25lZENhbGwvY25uX2ZvcmVjYXN0X2Vuc2VtYmxlL21vZGVsXzEyL2JpZGlyZWN0aW9uYWxfNi9mb3J3YXJkX2xzdG1fNi9QYXJ0aXRpb25lZENhbGwvd2hpbGU="}, "T": {"type": "DT_INT32"}, "parallel_iterations": {"i": "32"}}}, {"name": "StatefulPartitionedCall/cnn_forecast_ensemble/model_12/bidirectional_6/forward_lstm_6/PartitionedCall/while/enter/_486", "op": "Enter", "input": ["StatefulPartitionedCall/cnn_forecast_ensemble/model_12/bidirectional_6/forward_lstm_6/PartitionedCall/while/loop_counter"], "attr": {"is_constant": {"b": false}, "frame_name": {"s": "U3RhdGVmdWxQYXJ0aXRpb25lZENhbGwvY25uX2ZvcmVjYXN0X2Vuc2VtYmxlL21vZGVsXzEyL2JpZGlyZWN0aW9uYWxfNi9mb3J3YXJkX2xzdG1fNi9QYXJ0aXRpb25lZENhbGwvd2hpbGU="}, "T": {"type": "DT_INT32"}, "parallel_iterations": {"i": "32"}}}, {"name": "StatefulPartitionedCall/cnn_forecast_ensemble/model_12/bidirectional_6/backward_lstm_6/PartitionedCall/while/enter/_554", "op": "Enter", "input": ["StatefulPartitionedCall/cnn_forecast_ensemble/model_12/bidirectional_6/backward_lstm_6/Read/ReadVariableOp"], "attr": {"is_constant": {"b": false}, "frame_name": {"s": "U3RhdGVmdWxQYXJ0aXRpb25lZENhbGwvY25uX2ZvcmVjYXN0X2Vuc2VtYmxlL21vZGVsXzEyL2JpZGlyZWN0aW9uYWxfNi9iYWNrd2FyZF9sc3RtXzYvUGFydGl0aW9uZWRDYWxsL3doaWxl"}, "T": {"type": "DT_FLOAT"}, "parallel_iterations": {"i": "32"}}}, {"name": "StatefulPartitionedCall/cnn_forecast_ensemble/model_12/bidirectional_6/backward_lstm_6/PartitionedCall/while/enter/_555", "op": "Enter", "input": ["StatefulPartitionedCall/cnn_forecast_ensemble/model_12/bidirectional_6/backward_lstm_6/Read_1/ReadVariableOp"], "attr": {"is_constant": {"b": false}, "frame_name": {"s": "U3RhdGVmdWxQYXJ0aXRpb25lZENhbGwvY25uX2ZvcmVjYXN0X2Vuc2VtYmxlL21vZGVsXzEyL2JpZGlyZWN0aW9uYWxfNi9iYWNrd2FyZF9sc3RtXzYvUGFydGl0aW9uZWRDYWxsL3doaWxl"}, "T": {"type": "DT_FLOAT"}, "parallel_iterations": {"i": "32"}}}, {"name": "StatefulPartitionedCall/cnn_forecast_ensemble/model_12/bidirectional_6/backward_lstm_6/PartitionedCall/while/enter/_556", "op": "Enter", "input": ["StatefulPartitionedCall/cnn_forecast_ensemble/model_12/bidirectional_6/backward_lstm_6/Read_2/ReadVariableOp"], "attr": {"is_constant": {"b": false}, "frame_name": {"s": "U3RhdGVmdWxQYXJ0aXRpb25lZENhbGwvY25uX2ZvcmVjYXN0X2Vuc2VtYmxlL21vZGVsXzEyL2JpZGlyZWN0aW9uYWxfNi9iYWNrd2FyZF9sc3RtXzYvUGFydGl0aW9uZWRDYWxsL3doaWxl"}, "T": {"type": "DT_FLOAT"}, "parallel_iterations": {"i": "32"}}}, {"name": "StatefulPartitionedCall/cnn_forecast_ensemble/model_12/bidirectional_6/backward_lstm_6/PartitionedCall/while/enter/_548", "op": "Enter", "input": ["StatefulPartitionedCall/cnn_forecast_ensemble/model_12/bidirectional_6/backward_lstm_6/PartitionedCall/time"], "attr": {"is_constant": {"b": false}, "frame_name": {"s": "U3RhdGVmdWxQYXJ0aXRpb25lZENhbGwvY25uX2ZvcmVjYXN0X2Vuc2VtYmxlL21vZGVsXzEyL2JpZGlyZWN0aW9uYWxfNi9iYWNrd2FyZF9sc3RtXzYvUGFydGl0aW9uZWRDYWxsL3doaWxl"}, "T": {"type": "DT_INT32"}, "parallel_iterations": {"i": "32"}}}, {"name": "StatefulPartitionedCall/cnn_forecast_ensemble/model_12/bidirectional_6/backward_lstm_6/PartitionedCall/while/enter/_546", "op": "Enter", "input": ["StatefulPartitionedCall/cnn_forecast_ensemble/model_12/bidirectional_6/backward_lstm_6/PartitionedCall/while/loop_counter"], "attr": {"is_constant": {"b": false}, "frame_name": {"s": "U3RhdGVmdWxQYXJ0aXRpb25lZENhbGwvY25uX2ZvcmVjYXN0X2Vuc2VtYmxlL21vZGVsXzEyL2JpZGlyZWN0aW9uYWxfNi9iYWNrd2FyZF9sc3RtXzYvUGFydGl0aW9uZWRDYWxsL3doaWxl"}, "T": {"type": "DT_INT32"}, "parallel_iterations": {"i": "32"}}}, {"name": "StatefulPartitionedCall/cnn_forecast_ensemble/model_12/bidirectional_7/backward_lstm_7/PartitionedCall/while/enter/_666", "op": "Enter", "input": ["StatefulPartitionedCall/cnn_forecast_ensemble/model_12/bidirectional_7/backward_lstm_7/PartitionedCall/while/loop_counter"], "attr": {"is_constant": {"b": false}, "frame_name": {"s": "U3RhdGVmdWxQYXJ0aXRpb25lZENhbGwvY25uX2ZvcmVjYXN0X2Vuc2VtYmxlL21vZGVsXzEyL2JpZGlyZWN0aW9uYWxfNy9iYWNrd2FyZF9sc3RtXzcvUGFydGl0aW9uZWRDYWxsL3doaWxl"}, "T": {"type": "DT_INT32"}, "parallel_iterations": {"i": "32"}}}, {"name": "StatefulPartitionedCall/cnn_forecast_ensemble/model_12/conv1d_15/Conv1D/ExpandDims", "op": "ExpandDims", "input": ["ts_input1", "StatefulPartitionedCall/cnn_forecast_ensemble/model_12/conv1d_15/Conv1D/ExpandDims/dim"], "attr": {"Tdim": {"type": "DT_INT32"}, "T": {"type": "DT_FLOAT"}}}, {"name": "StatefulPartitionedCall/cnn_forecast_ensemble/model_12/conv1d_16/Conv1D/ExpandDims", "op": "ExpandDims", "input": ["ts_input2", "StatefulPartitionedCall/cnn_forecast_ensemble/model_12/conv1d_16/Conv1D/ExpandDims/dim"], "attr": {"Tdim": {"type": "DT_INT32"}, "T": {"type": "DT_FLOAT"}}}, {"name": "StatefulPartitionedCall/cnn_forecast_ensemble/sequential/inception_v3/activation/Relu", "op": "_FusedConv2D", "input": ["img_input", "StatefulPartitionedCall/cnn_forecast_ensemble/sequential/inception_v3/conv2d/Conv2D_weights", "StatefulPartitionedCall/cnn_forecast_ensemble/sequential/inception_v3/conv2d/Conv2D_bn_offset"], "device": "/device:CPU:0", "attr": {"num_host_args": {"i": "0"}, "data_format": {"s": "TkhXQw=="}, "filter_format": {"s": "SFdJTw=="}, "strides": {"list": {"i": ["1", "2", "2", "1"]}}, "num_args": {"i": "1"}, "fused_ops": {"list": {"s": ["Qmlhc0FkZA==", "UmVsdQ=="]}}, "TArgs": {"list": {"type": ["DT_FLOAT"]}}, "padding": {"s": "VkFMSUQ="}, "use_cudnn_on_gpu": {"b": true}, "leakyrelu_alpha": {"f": 0.2}, "epsilon": {"f": 0.0}, "T": {"type": "DT_FLOAT"}, "explicit_paddings": {"list": {}}, "dilations": {"list": {"i": ["1", "1", "1", "1"]}}}}, {"name": "StatefulPartitionedCall/cnn_forecast_ensemble/model_12/bidirectional_7/forward_lstm_7/PartitionedCall/while/enter/_609", "op": "Enter", "input": ["StatefulPartitionedCall/cnn_forecast_ensemble/model_12/bidirectional_7/forward_lstm_7/PartitionedCall/TensorArrayV2_1"], "attr": {"is_constant": {"b": false}, "frame_name": {"s": "U3RhdGVmdWxQYXJ0aXRpb25lZENhbGwvY25uX2ZvcmVjYXN0X2Vuc2VtYmxlL21vZGVsXzEyL2JpZGlyZWN0aW9uYWxfNy9mb3J3YXJkX2xzdG1fNy9QYXJ0aXRpb25lZENhbGwvd2hpbGU="}, "T": {"type": "DT_VARIANT"}, "parallel_iterations": {"i": "32"}}}, {"name": "StatefulPartitionedCall/cnn_forecast_ensemble/model_12/bidirectional_7/forward_lstm_7/PartitionedCall/while/merge/_625", "op": "Merge", "input": ["StatefulPartitionedCall/cnn_forecast_ensemble/model_12/bidirectional_7/forward_lstm_7/PartitionedCall/while/enter/_614", "StatefulPartitionedCall/cnn_forecast_ensemble/model_12/bidirectional_7/forward_lstm_7/PartitionedCall/while/next_iteration/_661"], "attr": {"N": {"i": "2"}, "T": {"type": "DT_FLOAT"}}}, {"name": "StatefulPartitionedCall/cnn_forecast_ensemble/model_12/bidirectional_7/forward_lstm_7/PartitionedCall/while/merge/_626", "op": "Merge", "input": ["StatefulPartitionedCall/cnn_forecast_ensemble/model_12/bidirectional_7/forward_lstm_7/PartitionedCall/while/enter/_615", "StatefulPartitionedCall/cnn_forecast_ensemble/model_12/bidirectional_7/forward_lstm_7/PartitionedCall/while/next_iteration/_662"], "attr": {"N": {"i": "2"}, "T": {"type": "DT_FLOAT"}}}, {"name": "StatefulPartitionedCall/cnn_forecast_ensemble/model_12/bidirectional_7/forward_lstm_7/PartitionedCall/while/merge/_627", "op": "Merge", "input": ["StatefulPartitionedCall/cnn_forecast_ensemble/model_12/bidirectional_7/forward_lstm_7/PartitionedCall/while/enter/_616", "StatefulPartitionedCall/cnn_forecast_ensemble/model_12/bidirectional_7/forward_lstm_7/PartitionedCall/while/next_iteration/_663"], "attr": {"N": {"i": "2"}, "T": {"type": "DT_FLOAT"}}}, {"name": "StatefulPartitionedCall/cnn_forecast_ensemble/model_12/bidirectional_7/forward_lstm_7/PartitionedCall/while/merge/_619", "op": "Merge", "input": ["StatefulPartitionedCall/cnn_forecast_ensemble/model_12/bidirectional_7/forward_lstm_7/PartitionedCall/while/enter/_608", "StatefulPartitionedCall/cnn_forecast_ensemble/model_12/bidirectional_7/forward_lstm_7/PartitionedCall/while/next_iteration/_655"], "attr": {"N": {"i": "2"}, "T": {"type": "DT_INT32"}}}, {"name": "StatefulPartitionedCall/cnn_forecast_ensemble/model_12/bidirectional_7/forward_lstm_7/PartitionedCall/while/merge/_617", "op": "Merge", "input": ["StatefulPartitionedCall/cnn_forecast_ensemble/model_12/bidirectional_7/forward_lstm_7/PartitionedCall/while/enter/_606", "StatefulPartitionedCall/cnn_forecast_ensemble/model_12/bidirectional_7/forward_lstm_7/PartitionedCall/while/next_iteration/_653"], "attr": {"N": {"i": "2"}, "_has_manual_control_dependencies": {"b": true}, "T": {"type": "DT_INT32"}}}, {"name": "StatefulPartitionedCall/cnn_forecast_ensemble/model_12/bidirectional_7/backward_lstm_7/PartitionedCall/while/enter/_669", "op": "Enter", "input": ["StatefulPartitionedCall/cnn_forecast_ensemble/model_12/bidirectional_7/backward_lstm_7/PartitionedCall/TensorArrayV2_1"], "attr": {"is_constant": {"b": false}, "frame_name": {"s": "U3RhdGVmdWxQYXJ0aXRpb25lZENhbGwvY25uX2ZvcmVjYXN0X2Vuc2VtYmxlL21vZGVsXzEyL2JpZGlyZWN0aW9uYWxfNy9iYWNrd2FyZF9sc3RtXzcvUGFydGl0aW9uZWRDYWxsL3doaWxl"}, "T": {"type": "DT_VARIANT"}, "parallel_iterations": {"i": "32"}}}, {"name": "StatefulPartitionedCall/cnn_forecast_ensemble/model_12/bidirectional_7/backward_lstm_7/PartitionedCall/while/merge/_685", "op": "Merge", "input": ["StatefulPartitionedCall/cnn_forecast_ensemble/model_12/bidirectional_7/backward_lstm_7/PartitionedCall/while/enter/_674", "StatefulPartitionedCall/cnn_forecast_ensemble/model_12/bidirectional_7/backward_lstm_7/PartitionedCall/while/next_iteration/_721"], "attr": {"N": {"i": "2"}, "T": {"type": "DT_FLOAT"}}}, {"name": "StatefulPartitionedCall/cnn_forecast_ensemble/model_12/bidirectional_7/backward_lstm_7/PartitionedCall/while/merge/_686", "op": "Merge", "input": ["StatefulPartitionedCall/cnn_forecast_ensemble/model_12/bidirectional_7/backward_lstm_7/PartitionedCall/while/enter/_675", "StatefulPartitionedCall/cnn_forecast_ensemble/model_12/bidirectional_7/backward_lstm_7/PartitionedCall/while/next_iteration/_722"], "attr": {"N": {"i": "2"}, "T": {"type": "DT_FLOAT"}}}, {"name": "StatefulPartitionedCall/cnn_forecast_ensemble/model_12/bidirectional_7/backward_lstm_7/PartitionedCall/while/merge/_687", "op": "Merge", "input": ["StatefulPartitionedCall/cnn_forecast_ensemble/model_12/bidirectional_7/backward_lstm_7/PartitionedCall/while/enter/_676", "StatefulPartitionedCall/cnn_forecast_ensemble/model_12/bidirectional_7/backward_lstm_7/PartitionedCall/while/next_iteration/_723"], "attr": {"N": {"i": "2"}, "T": {"type": "DT_FLOAT"}}}, {"name": "StatefulPartitionedCall/cnn_forecast_ensemble/model_12/bidirectional_7/backward_lstm_7/PartitionedCall/while/merge/_679", "op": "Merge", "input": ["StatefulPartitionedCall/cnn_forecast_ensemble/model_12/bidirectional_7/backward_lstm_7/PartitionedCall/while/enter/_668", "StatefulPartitionedCall/cnn_forecast_ensemble/model_12/bidirectional_7/backward_lstm_7/PartitionedCall/while/next_iteration/_715"], "attr": {"N": {"i": "2"}, "T": {"type": "DT_INT32"}}}, {"name": "StatefulPartitionedCall/cnn_forecast_ensemble/model_12/bidirectional_6/forward_lstm_6/PartitionedCall/while/merge/_505", "op": "Merge", "input": ["StatefulPartitionedCall/cnn_forecast_ensemble/model_12/bidirectional_6/forward_lstm_6/PartitionedCall/while/enter/_494", "StatefulPartitionedCall/cnn_forecast_ensemble/model_12/bidirectional_6/forward_lstm_6/PartitionedCall/while/next_iteration/_541"], "attr": {"N": {"i": "2"}, "T": {"type": "DT_FLOAT"}}}, {"name": "StatefulPartitionedCall/cnn_forecast_ensemble/model_12/bidirectional_6/forward_lstm_6/PartitionedCall/while/merge/_506", "op": "Merge", "input": ["StatefulPartitionedCall/cnn_forecast_ensemble/model_12/bidirectional_6/forward_lstm_6/PartitionedCall/while/enter/_495", "StatefulPartitionedCall/cnn_forecast_ensemble/model_12/bidirectional_6/forward_lstm_6/PartitionedCall/while/next_iteration/_542"], "attr": {"N": {"i": "2"}, "T": {"type": "DT_FLOAT"}}}, {"name": "StatefulPartitionedCall/cnn_forecast_ensemble/model_12/bidirectional_6/forward_lstm_6/PartitionedCall/while/merge/_507", "op": "Merge", "input": ["StatefulPartitionedCall/cnn_forecast_ensemble/model_12/bidirectional_6/forward_lstm_6/PartitionedCall/while/enter/_496", "StatefulPartitionedCall/cnn_forecast_ensemble/model_12/bidirectional_6/forward_lstm_6/PartitionedCall/while/next_iteration/_543"], "attr": {"N": {"i": "2"}, "T": {"type": "DT_FLOAT"}}}, {"name": "StatefulPartitionedCall/cnn_forecast_ensemble/model_12/bidirectional_6/forward_lstm_6/PartitionedCall/while/merge/_499", "op": "Merge", "input": ["StatefulPartitionedCall/cnn_forecast_ensemble/model_12/bidirectional_6/forward_lstm_6/PartitionedCall/while/enter/_488", "StatefulPartitionedCall/cnn_forecast_ensemble/model_12/bidirectional_6/forward_lstm_6/PartitionedCall/while/next_iteration/_535"], "attr": {"N": {"i": "2"}, "T": {"type": "DT_INT32"}}}, {"name": "StatefulPartitionedCall/cnn_forecast_ensemble/model_12/bidirectional_6/forward_lstm_6/PartitionedCall/while/merge/_497", "op": "Merge", "input": ["StatefulPartitionedCall/cnn_forecast_ensemble/model_12/bidirectional_6/forward_lstm_6/PartitionedCall/while/enter/_486", "StatefulPartitionedCall/cnn_forecast_ensemble/model_12/bidirectional_6/forward_lstm_6/PartitionedCall/while/next_iteration/_533"], "attr": {"N": {"i": "2"}, "_has_manual_control_dependencies": {"b": true}, "T": {"type": "DT_INT32"}}}, {"name": "StatefulPartitionedCall/cnn_forecast_ensemble/model_12/bidirectional_6/backward_lstm_6/PartitionedCall/while/merge/_565", "op": "Merge", "input": ["StatefulPartitionedCall/cnn_forecast_ensemble/model_12/bidirectional_6/backward_lstm_6/PartitionedCall/while/enter/_554", "StatefulPartitionedCall/cnn_forecast_ensemble/model_12/bidirectional_6/backward_lstm_6/PartitionedCall/while/next_iteration/_601"], "attr": {"N": {"i": "2"}, "T": {"type": "DT_FLOAT"}}}, {"name": "StatefulPartitionedCall/cnn_forecast_ensemble/model_12/bidirectional_6/backward_lstm_6/PartitionedCall/while/merge/_566", "op": "Merge", "input": ["StatefulPartitionedCall/cnn_forecast_ensemble/model_12/bidirectional_6/backward_lstm_6/PartitionedCall/while/enter/_555", "StatefulPartitionedCall/cnn_forecast_ensemble/model_12/bidirectional_6/backward_lstm_6/PartitionedCall/while/next_iteration/_602"], "attr": {"N": {"i": "2"}, "T": {"type": "DT_FLOAT"}}}, {"name": "StatefulPartitionedCall/cnn_forecast_ensemble/model_12/bidirectional_6/backward_lstm_6/PartitionedCall/while/merge/_567", "op": "Merge", "input": ["StatefulPartitionedCall/cnn_forecast_ensemble/model_12/bidirectional_6/backward_lstm_6/PartitionedCall/while/enter/_556", "StatefulPartitionedCall/cnn_forecast_ensemble/model_12/bidirectional_6/backward_lstm_6/PartitionedCall/while/next_iteration/_603"], "attr": {"N": {"i": "2"}, "T": {"type": "DT_FLOAT"}}}, {"name": "StatefulPartitionedCall/cnn_forecast_ensemble/model_12/bidirectional_6/backward_lstm_6/PartitionedCall/while/merge/_559", "op": "Merge", "input": ["StatefulPartitionedCall/cnn_forecast_ensemble/model_12/bidirectional_6/backward_lstm_6/PartitionedCall/while/enter/_548", "StatefulPartitionedCall/cnn_forecast_ensemble/model_12/bidirectional_6/backward_lstm_6/PartitionedCall/while/next_iteration/_595"], "attr": {"N": {"i": "2"}, "T": {"type": "DT_INT32"}}}, {"name": "StatefulPartitionedCall/cnn_forecast_ensemble/model_12/bidirectional_6/backward_lstm_6/PartitionedCall/while/merge/_557", "op": "Merge", "input": ["StatefulPartitionedCall/cnn_forecast_ensemble/model_12/bidirectional_6/backward_lstm_6/PartitionedCall/while/enter/_546", "StatefulPartitionedCall/cnn_forecast_ensemble/model_12/bidirectional_6/backward_lstm_6/PartitionedCall/while/next_iteration/_593"], "attr": {"N": {"i": "2"}, "T": {"type": "DT_INT32"}}}, {"name": "StatefulPartitionedCall/cnn_forecast_ensemble/model_12/bidirectional_7/backward_lstm_7/PartitionedCall/while/merge/_677", "op": "Merge", "input": ["StatefulPartitionedCall/cnn_forecast_ensemble/model_12/bidirectional_7/backward_lstm_7/PartitionedCall/while/enter/_666", "StatefulPartitionedCall/cnn_forecast_ensemble/model_12/bidirectional_7/backward_lstm_7/PartitionedCall/while/next_iteration/_713"], "attr": {"N": {"i": "2"}, "_has_manual_control_dependencies": {"b": true}, "T": {"type": "DT_INT32"}}}, {"name": "StatefulPartitionedCall/cnn_forecast_ensemble/model_12/conv1d_15/Conv1D", "op": "_FusedConv2D", "input": ["StatefulPartitionedCall/cnn_forecast_ensemble/model_12/conv1d_15/Conv1D/ExpandDims", "StatefulPartitionedCall/cnn_forecast_ensemble/model_12/conv1d_15/Conv1D/ExpandDims_1", "StatefulPartitionedCall/cnn_forecast_ensemble/model_12/conv1d_15/BiasAdd/ReadVariableOp"], "device": "/device:CPU:0", "attr": {"num_host_args": {"i": "0"}, "data_format": {"s": "TkhXQw=="}, "filter_format": {"s": "SFdJTw=="}, "strides": {"list": {"i": ["1", "1", "1", "1"]}}, "num_args": {"i": "1"}, "fused_ops": {"list": {"s": ["Qmlhc0FkZA=="]}}, "TArgs": {"list": {"type": ["DT_FLOAT"]}}, "padding": {"s": "VkFMSUQ="}, "use_cudnn_on_gpu": {"b": true}, "leakyrelu_alpha": {"f": 0.2}, "epsilon": {"f": 0.0}, "T": {"type": "DT_FLOAT"}, "explicit_paddings": {"list": {}}, "dilations": {"list": {"i": ["1", "1", "1", "1"]}}}}, {"name": "StatefulPartitionedCall/cnn_forecast_ensemble/model_12/conv1d_16/Conv1D", "op": "_FusedConv2D", "input": ["StatefulPartitionedCall/cnn_forecast_ensemble/model_12/conv1d_16/Conv1D/ExpandDims", "StatefulPartitionedCall/cnn_forecast_ensemble/model_12/conv1d_16/Conv1D/ExpandDims_1", "StatefulPartitionedCall/cnn_forecast_ensemble/model_12/conv1d_16/BiasAdd/ReadVariableOp"], "device": "/device:CPU:0", "attr": {"num_host_args": {"i": "0"}, "data_format": {"s": "TkhXQw=="}, "filter_format": {"s": "SFdJTw=="}, "fused_ops": {"list": {"s": ["Qmlhc0FkZA=="]}}, "num_args": {"i": "1"}, "strides": {"list": {"i": ["1", "1", "1", "1"]}}, "TArgs": {"list": {"type": ["DT_FLOAT"]}}, "padding": {"s": "VkFMSUQ="}, "use_cudnn_on_gpu": {"b": true}, "leakyrelu_alpha": {"f": 0.2}, "epsilon": {"f": 0.0}, "T": {"type": "DT_FLOAT"}, "explicit_paddings": {"list": {}}, "dilations": {"list": {"i": ["1", "1", "1", "1"]}}}}, {"name": "StatefulPartitionedCall/cnn_forecast_ensemble/sequential/inception_v3/activation_1/Relu", "op": "_FusedConv2D", "input": ["StatefulPartitionedCall/cnn_forecast_ensemble/sequential/inception_v3/activation/Relu", "StatefulPartitionedCall/cnn_forecast_ensemble/sequential/inception_v3/conv2d_1/Conv2D_weights", "StatefulPartitionedCall/cnn_forecast_ensemble/sequential/inception_v3/conv2d_1/Conv2D_bn_offset"], "device": "/device:CPU:0", "attr": {"num_host_args": {"i": "0"}, "data_format": {"s": "TkhXQw=="}, "filter_format": {"s": "SFdJTw=="}, "fused_ops": {"list": {"s": ["Qmlhc0FkZA==", "UmVsdQ=="]}}, "num_args": {"i": "1"}, "strides": {"list": {"i": ["1", "1", "1", "1"]}}, "TArgs": {"list": {"type": ["DT_FLOAT"]}}, "padding": {"s": "VkFMSUQ="}, "use_cudnn_on_gpu": {"b": true}, "leakyrelu_alpha": {"f": 0.2}, "epsilon": {"f": 0.0}, "T": {"type": "DT_FLOAT"}, "explicit_paddings": {"list": {}}, "dilations": {"list": {"i": ["1", "1", "1", "1"]}}}}, {"name": "StatefulPartitionedCall/cnn_forecast_ensemble/model_12/bidirectional_7/forward_lstm_7/PartitionedCall/while/merge/_620", "op": "Merge", "input": ["StatefulPartitionedCall/cnn_forecast_ensemble/model_12/bidirectional_7/forward_lstm_7/PartitionedCall/while/enter/_609", "StatefulPartitionedCall/cnn_forecast_ensemble/model_12/bidirectional_7/forward_lstm_7/PartitionedCall/while/next_iteration/_656"], "attr": {"N": {"i": "2"}, "T": {"type": "DT_VARIANT"}}}, {"name": "StatefulPartitionedCall/cnn_forecast_ensemble/model_12/bidirectional_7/backward_lstm_7/PartitionedCall/while/merge/_680", "op": "Merge", "input": ["StatefulPartitionedCall/cnn_forecast_ensemble/model_12/bidirectional_7/backward_lstm_7/PartitionedCall/while/enter/_669", "StatefulPartitionedCall/cnn_forecast_ensemble/model_12/bidirectional_7/backward_lstm_7/PartitionedCall/while/next_iteration/_716"], "attr": {"N": {"i": "2"}, "T": {"type": "DT_VARIANT"}}}, {"name": "StatefulPartitionedCall/cnn_forecast_ensemble/model_12/conv1d_15/BiasAdd", "op": "Squeeze", "input": ["StatefulPartitionedCall/cnn_forecast_ensemble/model_12/conv1d_15/Conv1D"], "attr": {"T": {"type": "DT_FLOAT"}, "squeeze_dims": {"list": {"i": ["-3"]}}}}, {"name": "StatefulPartitionedCall/cnn_forecast_ensemble/model_12/conv1d_16/BiasAdd", "op": "Squeeze", "input": ["StatefulPartitionedCall/cnn_forecast_ensemble/model_12/conv1d_16/Conv1D"], "attr": {"T": {"type": "DT_FLOAT"}, "squeeze_dims": {"list": {"i": ["-3"]}}}}, {"name": "StatefulPartitionedCall/cnn_forecast_ensemble/sequential/inception_v3/activation_2/Relu", "op": "_FusedConv2D", "input": ["StatefulPartitionedCall/cnn_forecast_ensemble/sequential/inception_v3/activation_1/Relu", "StatefulPartitionedCall/cnn_forecast_ensemble/sequential/inception_v3/conv2d_2/Conv2D_weights", "StatefulPartitionedCall/cnn_forecast_ensemble/sequential/inception_v3/conv2d_2/Conv2D_bn_offset"], "device": "/device:CPU:0", "attr": {"num_host_args": {"i": "0"}, "data_format": {"s": "TkhXQw=="}, "filter_format": {"s": "SFdJTw=="}, "strides": {"list": {"i": ["1", "1", "1", "1"]}}, "num_args": {"i": "1"}, "fused_ops": {"list": {"s": ["Qmlhc0FkZA==", "UmVsdQ=="]}}, "TArgs": {"list": {"type": ["DT_FLOAT"]}}, "padding": {"s": "U0FNRQ=="}, "use_cudnn_on_gpu": {"b": true}, "leakyrelu_alpha": {"f": 0.2}, "epsilon": {"f": 0.0}, "T": {"type": "DT_FLOAT"}, "explicit_paddings": {"list": {}}, "dilations": {"list": {"i": ["1", "1", "1", "1"]}}}}, {"name": "StatefulPartitionedCall/cnn_forecast_ensemble/model_12/conv1d_15/Relu", "op": "Relu", "input": ["StatefulPartitionedCall/cnn_forecast_ensemble/model_12/conv1d_15/BiasAdd"], "attr": {"T": {"type": "DT_FLOAT"}}}, {"name": "StatefulPartitionedCall/cnn_forecast_ensemble/model_12/conv1d_16/Relu", "op": "Relu", "input": ["StatefulPartitionedCall/cnn_forecast_ensemble/model_12/conv1d_16/BiasAdd"], "attr": {"T": {"type": "DT_FLOAT"}}}, {"name": "StatefulPartitionedCall/cnn_forecast_ensemble/sequential/inception_v3/max_pooling2d/MaxPool", "op": "MaxPool", "input": ["StatefulPartitionedCall/cnn_forecast_ensemble/sequential/inception_v3/activation_2/Relu"], "attr": {"ksize": {"list": {"i": ["1", "3", "3", "1"]}}, "data_format": {"s": "TkhXQw=="}, "T": {"type": "DT_FLOAT"}, "explicit_paddings": {"list": {}}, "padding": {"s": "VkFMSUQ="}, "strides": {"list": {"i": ["1", "2", "2", "1"]}}}}, {"name": "StatefulPartitionedCall/cnn_forecast_ensemble/model_12/batch_normalization_12/batchnorm/mul_1", "op": "Mul", "input": ["StatefulPartitionedCall/cnn_forecast_ensemble/model_12/conv1d_15/Relu", "StatefulPartitionedCall/cnn_forecast_ensemble/model_12/batch_normalization_12/batchnorm/mul"], "attr": {"T": {"type": "DT_FLOAT"}}}, {"name": "StatefulPartitionedCall/cnn_forecast_ensemble/model_12/conv1d_17/Conv1D/ExpandDims", "op": "ExpandDims", "input": ["StatefulPartitionedCall/cnn_forecast_ensemble/model_12/conv1d_16/Relu", "StatefulPartitionedCall/cnn_forecast_ensemble/model_12/conv1d_17/Conv1D/ExpandDims/dim"], "attr": {"Tdim": {"type": "DT_INT32"}, "T": {"type": "DT_FLOAT"}}}, {"name": "StatefulPartitionedCall/cnn_forecast_ensemble/sequential/inception_v3/activation_3/Relu", "op": "_FusedConv2D", "input": ["StatefulPartitionedCall/cnn_forecast_ensemble/sequential/inception_v3/max_pooling2d/MaxPool", "StatefulPartitionedCall/cnn_forecast_ensemble/sequential/inception_v3/conv2d_3/Conv2D_weights", "StatefulPartitionedCall/cnn_forecast_ensemble/sequential/inception_v3/conv2d_3/Conv2D_bn_offset"], "device": "/device:CPU:0", "attr": {"num_host_args": {"i": "0"}, "data_format": {"s": "TkhXQw=="}, "filter_format": {"s": "SFdJTw=="}, "strides": {"list": {"i": ["1", "1", "1", "1"]}}, "num_args": {"i": "1"}, "fused_ops": {"list": {"s": ["Qmlhc0FkZA==", "UmVsdQ=="]}}, "TArgs": {"list": {"type": ["DT_FLOAT"]}}, "padding": {"s": "VkFMSUQ="}, "use_cudnn_on_gpu": {"b": true}, "leakyrelu_alpha": {"f": 0.2}, "epsilon": {"f": 0.0}, "T": {"type": "DT_FLOAT"}, "explicit_paddings": {"list": {}}, "dilations": {"list": {"i": ["1", "1", "1", "1"]}}}}, {"name": "StatefulPartitionedCall/cnn_forecast_ensemble/model_12/batch_normalization_12/batchnorm/add_1", "op": "AddV2", "input": ["StatefulPartitionedCall/cnn_forecast_ensemble/model_12/batch_normalization_12/batchnorm/mul_1", "StatefulPartitionedCall/cnn_forecast_ensemble/model_12/batch_normalization_12/batchnorm/sub"], "attr": {"T": {"type": "DT_FLOAT"}}}, {"name": "StatefulPartitionedCall/cnn_forecast_ensemble/model_12/conv1d_17/Conv1D", "op": "_FusedConv2D", "input": ["StatefulPartitionedCall/cnn_forecast_ensemble/model_12/conv1d_17/Conv1D/ExpandDims", "StatefulPartitionedCall/cnn_forecast_ensemble/model_12/conv1d_17/Conv1D/ExpandDims_1", "StatefulPartitionedCall/cnn_forecast_ensemble/model_12/conv1d_17/BiasAdd/ReadVariableOp"], "device": "/device:CPU:0", "attr": {"num_host_args": {"i": "0"}, "data_format": {"s": "TkhXQw=="}, "filter_format": {"s": "SFdJTw=="}, "fused_ops": {"list": {"s": ["Qmlhc0FkZA=="]}}, "num_args": {"i": "1"}, "strides": {"list": {"i": ["1", "1", "1", "1"]}}, "TArgs": {"list": {"type": ["DT_FLOAT"]}}, "padding": {"s": "VkFMSUQ="}, "use_cudnn_on_gpu": {"b": true}, "leakyrelu_alpha": {"f": 0.2}, "epsilon": {"f": 0.0}, "T": {"type": "DT_FLOAT"}, "explicit_paddings": {"list": {}}, "dilations": {"list": {"i": ["1", "1", "1", "1"]}}}}, {"name": "StatefulPartitionedCall/cnn_forecast_ensemble/sequential/inception_v3/activation_4/Relu", "op": "_FusedConv2D", "input": ["StatefulPartitionedCall/cnn_forecast_ensemble/sequential/inception_v3/activation_3/Relu", "StatefulPartitionedCall/cnn_forecast_ensemble/sequential/inception_v3/conv2d_4/Conv2D_weights", "StatefulPartitionedCall/cnn_forecast_ensemble/sequential/inception_v3/conv2d_4/Conv2D_bn_offset"], "device": "/device:CPU:0", "attr": {"num_host_args": {"i": "0"}, "data_format": {"s": "TkhXQw=="}, "filter_format": {"s": "SFdJTw=="}, "strides": {"list": {"i": ["1", "1", "1", "1"]}}, "num_args": {"i": "1"}, "fused_ops": {"list": {"s": ["Qmlhc0FkZA==", "UmVsdQ=="]}}, "TArgs": {"list": {"type": ["DT_FLOAT"]}}, "padding": {"s": "VkFMSUQ="}, "use_cudnn_on_gpu": {"b": true}, "leakyrelu_alpha": {"f": 0.2}, "epsilon": {"f": 0.0}, "T": {"type": "DT_FLOAT"}, "explicit_paddings": {"list": {}}, "dilations": {"list": {"i": ["1", "1", "1", "1"]}}}}, {"name": "StatefulPartitionedCall/cnn_forecast_ensemble/model_12/bidirectional_6/forward_lstm_6/Shape", "op": "Shape", "input": ["StatefulPartitionedCall/cnn_forecast_ensemble/model_12/batch_normalization_12/batchnorm/add_1"], "attr": {"T": {"type": "DT_FLOAT"}, "out_type": {"type": "DT_INT32"}}, "experimentalType": {"typeId": "TFT_PRODUCT", "args": [{"typeId": "TFT_SHAPE_TENSOR", "args": [{"typeId": "TFT_INT32"}]}]}}, {"name": "StatefulPartitionedCall/cnn_forecast_ensemble/model_12/bidirectional_6/forward_lstm_6/PartitionedCall/transpose", "op": "Transpose", "input": ["StatefulPartitionedCall/cnn_forecast_ensemble/model_12/batch_normalization_12/batchnorm/add_1", "StatefulPartitionedCall/cnn_forecast_ensemble/model_12/bidirectional_6/forward_lstm_6/PartitionedCall/transpose/perm"], "attr": {"Tperm": {"type": "DT_INT32"}, "T": {"type": "DT_FLOAT"}}}, {"name": "StatefulPartitionedCall/cnn_forecast_ensemble/model_12/bidirectional_6/backward_lstm_6/Shape", "op": "Shape", "input": ["StatefulPartitionedCall/cnn_forecast_ensemble/model_12/batch_normalization_12/batchnorm/add_1"], "attr": {"T": {"type": "DT_FLOAT"}, "out_type": {"type": "DT_INT32"}}, "experimentalType": {"typeId": "TFT_PRODUCT", "args": [{"typeId": "TFT_SHAPE_TENSOR", "args": [{"typeId": "TFT_INT32"}]}]}}, {"name": "StatefulPartitionedCall/cnn_forecast_ensemble/model_12/bidirectional_6/backward_lstm_6/PartitionedCall/transpose", "op": "Transpose", "input": ["StatefulPartitionedCall/cnn_forecast_ensemble/model_12/batch_normalization_12/batchnorm/add_1", "StatefulPartitionedCall/cnn_forecast_ensemble/model_12/bidirectional_6/backward_lstm_6/PartitionedCall/transpose/perm"], "attr": {"Tperm": {"type": "DT_INT32"}, "T": {"type": "DT_FLOAT"}}}, {"name": "StatefulPartitionedCall/cnn_forecast_ensemble/model_12/conv1d_17/BiasAdd", "op": "Squeeze", "input": ["StatefulPartitionedCall/cnn_forecast_ensemble/model_12/conv1d_17/Conv1D"], "attr": {"T": {"type": "DT_FLOAT"}, "squeeze_dims": {"list": {"i": ["-3"]}}}}, {"name": "StatefulPartitionedCall/cnn_forecast_ensemble/sequential/inception_v3/max_pooling2d_1/MaxPool", "op": "MaxPool", "input": ["StatefulPartitionedCall/cnn_forecast_ensemble/sequential/inception_v3/activation_4/Relu"], "attr": {"ksize": {"list": {"i": ["1", "3", "3", "1"]}}, "data_format": {"s": "TkhXQw=="}, "T": {"type": "DT_FLOAT"}, "explicit_paddings": {"list": {}}, "padding": {"s": "VkFMSUQ="}, "strides": {"list": {"i": ["1", "2", "2", "1"]}}}}, {"name": "StatefulPartitionedCall/cnn_forecast_ensemble/model_12/bidirectional_6/forward_lstm_6/strided_slice", "op": "StridedSlice", "input": ["StatefulPartitionedCall/cnn_forecast_ensemble/model_12/bidirectional_6/forward_lstm_6/Shape", "StatefulPartitionedCall/cnn_forecast_ensemble/model_12/bidirectional_6/forward_lstm_6/strided_slice/stack", "StatefulPartitionedCall/cnn_forecast_ensemble/model_12/bidirectional_6/forward_lstm_6/strided_slice/stack_1", "StatefulPartitionedCall/cnn_forecast_ensemble/model_12/bidirectional_6/forward_lstm_6/strided_slice/stack_2"], "attr": {"shrink_axis_mask": {"i": "1"}, "Index": {"type": "DT_INT32"}, "new_axis_mask": {"i": "0"}, "begin_mask": {"i": "0"}, "T": {"type": "DT_INT32"}, "end_mask": {"i": "0"}, "ellipsis_mask": {"i": "0"}}}, {"name": "StatefulPartitionedCall/cnn_forecast_ensemble/model_12/bidirectional_6/forward_lstm_6/PartitionedCall/TensorArrayUnstack/TensorListFromTensor", "op": "TensorListFromTensor", "input": ["StatefulPartitionedCall/cnn_forecast_ensemble/model_12/bidirectional_6/forward_lstm_6/PartitionedCall/transpose", "StatefulPartitionedCall/cnn_forecast_ensemble/model_12/bidirectional_6/forward_lstm_6/PartitionedCall/TensorArrayUnstack/TensorListFromTensor/element_shape"], "attr": {"shape_type": {"type": "DT_INT32"}, "element_dtype": {"type": "DT_FLOAT"}}, "experimentalType": {"typeId": "TFT_PRODUCT", "args": [{"typeId": "TFT_ARRAY", "args": [{"typeId": "TFT_TENSOR", "args": [{"typeId": "TFT_FLOAT"}]}]}]}}, {"name": "StatefulPartitionedCall/cnn_forecast_ensemble/model_12/bidirectional_6/forward_lstm_6/PartitionedCall/Shape", "op": "Shape", "input": ["StatefulPartitionedCall/cnn_forecast_ensemble/model_12/bidirectional_6/forward_lstm_6/PartitionedCall/transpose"], "attr": {"T": {"type": "DT_FLOAT"}, "out_type": {"type": "DT_INT32"}}, "experimentalType": {"typeId": "TFT_PRODUCT", "args": [{"typeId": "TFT_SHAPE_TENSOR", "args": [{"typeId": "TFT_INT32"}]}]}}, {"name": "StatefulPartitionedCall/cnn_forecast_ensemble/model_12/bidirectional_6/backward_lstm_6/strided_slice", "op": "StridedSlice", "input": ["StatefulPartitionedCall/cnn_forecast_ensemble/model_12/bidirectional_6/backward_lstm_6/Shape", "StatefulPartitionedCall/cnn_forecast_ensemble/model_12/bidirectional_6/backward_lstm_6/strided_slice/stack", "StatefulPartitionedCall/cnn_forecast_ensemble/model_12/bidirectional_6/backward_lstm_6/strided_slice/stack_1", "StatefulPartitionedCall/cnn_forecast_ensemble/model_12/bidirectional_6/backward_lstm_6/strided_slice/stack_2"], "attr": {"shrink_axis_mask": {"i": "1"}, "new_axis_mask": {"i": "0"}, "Index": {"type": "DT_INT32"}, "begin_mask": {"i": "0"}, "T": {"type": "DT_INT32"}, "end_mask": {"i": "0"}, "ellipsis_mask": {"i": "0"}}}, {"name": "StatefulPartitionedCall/cnn_forecast_ensemble/model_12/bidirectional_6/backward_lstm_6/PartitionedCall/ReverseV2", "op": "ReverseV2", "input": ["StatefulPartitionedCall/cnn_forecast_ensemble/model_12/bidirectional_6/backward_lstm_6/PartitionedCall/transpose", "StatefulPartitionedCall/cnn_forecast_ensemble/model_12/bidirectional_6/backward_lstm_6/PartitionedCall/ReverseV2/axis"], "attr": {"Tidx": {"type": "DT_INT32"}, "T": {"type": "DT_FLOAT"}}}, {"name": "StatefulPartitionedCall/cnn_forecast_ensemble/model_12/bidirectional_6/backward_lstm_6/PartitionedCall/Shape", "op": "Shape", "input": ["StatefulPartitionedCall/cnn_forecast_ensemble/model_12/bidirectional_6/backward_lstm_6/PartitionedCall/transpose"], "attr": {"T": {"type": "DT_FLOAT"}, "out_type": {"type": "DT_INT32"}}, "experimentalType": {"typeId": "TFT_PRODUCT", "args": [{"typeId": "TFT_SHAPE_TENSOR", "args": [{"typeId": "TFT_INT32"}]}]}}, {"name": "StatefulPartitionedCall/cnn_forecast_ensemble/model_12/conv1d_17/Relu", "op": "Relu", "input": ["StatefulPartitionedCall/cnn_forecast_ensemble/model_12/conv1d_17/BiasAdd"], "attr": {"T": {"type": "DT_FLOAT"}}}, {"name": "StatefulPartitionedCall/cnn_forecast_ensemble/sequential/inception_v3/average_pooling2d/AvgPool", "op": "AvgPool", "input": ["StatefulPartitionedCall/cnn_forecast_ensemble/sequential/inception_v3/max_pooling2d_1/MaxPool"], "attr": {"padding": {"s": "U0FNRQ=="}, "data_format": {"s": "TkhXQw=="}, "T": {"type": "DT_FLOAT"}, "ksize": {"list": {"i": ["1", "3", "3", "1"]}}, "strides": {"list": {"i": ["1", "1", "1", "1"]}}}}, {"name": "StatefulPartitionedCall/cnn_forecast_ensemble/sequential/inception_v3/activation_5/Relu", "op": "_FusedConv2D", "input": ["StatefulPartitionedCall/cnn_forecast_ensemble/sequential/inception_v3/max_pooling2d_1/MaxPool", "StatefulPartitionedCall/cnn_forecast_ensemble/sequential/inception_v3/conv2d_5/Conv2D_weights", "StatefulPartitionedCall/cnn_forecast_ensemble/sequential/inception_v3/conv2d_5/Conv2D_bn_offset"], "device": "/device:CPU:0", "attr": {"num_host_args": {"i": "0"}, "data_format": {"s": "TkhXQw=="}, "filter_format": {"s": "SFdJTw=="}, "fused_ops": {"list": {"s": ["Qmlhc0FkZA==", "UmVsdQ=="]}}, "num_args": {"i": "1"}, "strides": {"list": {"i": ["1", "1", "1", "1"]}}, "TArgs": {"list": {"type": ["DT_FLOAT"]}}, "padding": {"s": "U0FNRQ=="}, "use_cudnn_on_gpu": {"b": true}, "leakyrelu_alpha": {"f": 0.2}, "epsilon": {"f": 0.0}, "T": {"type": "DT_FLOAT"}, "explicit_paddings": {"list": {}}, "dilations": {"list": {"i": ["1", "1", "1", "1"]}}}}, {"name": "StatefulPartitionedCall/cnn_forecast_ensemble/sequential/inception_v3/activation_6/Relu", "op": "_FusedConv2D", "input": ["StatefulPartitionedCall/cnn_forecast_ensemble/sequential/inception_v3/max_pooling2d_1/MaxPool", "StatefulPartitionedCall/cnn_forecast_ensemble/sequential/inception_v3/conv2d_6/Conv2D_weights", "StatefulPartitionedCall/cnn_forecast_ensemble/sequential/inception_v3/conv2d_6/Conv2D_bn_offset"], "device": "/device:CPU:0", "attr": {"num_host_args": {"i": "0"}, "data_format": {"s": "TkhXQw=="}, "filter_format": {"s": "SFdJTw=="}, "fused_ops": {"list": {"s": ["Qmlhc0FkZA==", "UmVsdQ=="]}}, "num_args": {"i": "1"}, "strides": {"list": {"i": ["1", "1", "1", "1"]}}, "TArgs": {"list": {"type": ["DT_FLOAT"]}}, "padding": {"s": "U0FNRQ=="}, "use_cudnn_on_gpu": {"b": true}, "leakyrelu_alpha": {"f": 0.2}, "epsilon": {"f": 0.0}, "T": {"type": "DT_FLOAT"}, "explicit_paddings": {"list": {}}, "dilations": {"list": {"i": ["1", "1", "1", "1"]}}}}, {"name": "StatefulPartitionedCall/cnn_forecast_ensemble/sequential/inception_v3/activation_8/Relu", "op": "_FusedConv2D", "input": ["StatefulPartitionedCall/cnn_forecast_ensemble/sequential/inception_v3/max_pooling2d_1/MaxPool", "StatefulPartitionedCall/cnn_forecast_ensemble/sequential/inception_v3/conv2d_8/Conv2D_weights", "StatefulPartitionedCall/cnn_forecast_ensemble/sequential/inception_v3/conv2d_8/Conv2D_bn_offset"], "device": "/device:CPU:0", "attr": {"num_host_args": {"i": "0"}, "data_format": {"s": "TkhXQw=="}, "filter_format": {"s": "SFdJTw=="}, "strides": {"list": {"i": ["1", "1", "1", "1"]}}, "num_args": {"i": "1"}, "fused_ops": {"list": {"s": ["Qmlhc0FkZA==", "UmVsdQ=="]}}, "TArgs": {"list": {"type": ["DT_FLOAT"]}}, "padding": {"s": "U0FNRQ=="}, "use_cudnn_on_gpu": {"b": true}, "leakyrelu_alpha": {"f": 0.2}, "epsilon": {"f": 0.0}, "T": {"type": "DT_FLOAT"}, "explicit_paddings": {"list": {}}, "dilations": {"list": {"i": ["1", "1", "1", "1"]}}}}, {"name": "StatefulPartitionedCall/cnn_forecast_ensemble/model_12/bidirectional_6/forward_lstm_6/zeros_1/packed", "op": "Pack", "input": ["StatefulPartitionedCall/cnn_forecast_ensemble/model_12/bidirectional_6/forward_lstm_6/strided_slice", "StatefulPartitionedCall/cnn_forecast_ensemble/model_12/bidirectional_6/forward_lstm_6/zeros_1/packed/1"], "attr": {"N": {"i": "2"}, "axis": {"i": "0"}, "T": {"type": "DT_INT32"}}}, {"name": "StatefulPartitionedCall/cnn_forecast_ensemble/model_12/bidirectional_6/forward_lstm_6/zeros/packed", "op": "Pack", "input": ["StatefulPartitionedCall/cnn_forecast_ensemble/model_12/bidirectional_6/forward_lstm_6/strided_slice", "StatefulPartitionedCall/cnn_forecast_ensemble/model_12/bidirectional_6/forward_lstm_6/zeros/packed/1"], "attr": {"N": {"i": "2"}, "axis": {"i": "0"}, "T": {"type": "DT_INT32"}}}, {"name": "StatefulPartitionedCall/cnn_forecast_ensemble/model_12/bidirectional_6/forward_lstm_6/PartitionedCall/while/enter/_493", "op": "Enter", "input": ["StatefulPartitionedCall/cnn_forecast_ensemble/model_12/bidirectional_6/forward_lstm_6/PartitionedCall/TensorArrayUnstack/TensorListFromTensor"], "attr": {"is_constant": {"b": false}, "frame_name": {"s": "U3RhdGVmdWxQYXJ0aXRpb25lZENhbGwvY25uX2ZvcmVjYXN0X2Vuc2VtYmxlL21vZGVsXzEyL2JpZGlyZWN0aW9uYWxfNi9mb3J3YXJkX2xzdG1fNi9QYXJ0aXRpb25lZENhbGwvd2hpbGU="}, "T": {"type": "DT_VARIANT"}, "parallel_iterations": {"i": "32"}}}, {"name": "StatefulPartitionedCall/cnn_forecast_ensemble/model_12/bidirectional_6/forward_lstm_6/PartitionedCall/strided_slice", "op": "StridedSlice", "input": ["StatefulPartitionedCall/cnn_forecast_ensemble/model_12/bidirectional_6/forward_lstm_6/PartitionedCall/Shape", "StatefulPartitionedCall/cnn_forecast_ensemble/model_12/bidirectional_6/forward_lstm_6/PartitionedCall/strided_slice/stack", "StatefulPartitionedCall/cnn_forecast_ensemble/model_12/bidirectional_6/forward_lstm_6/PartitionedCall/strided_slice/stack_1", "StatefulPartitionedCall/cnn_forecast_ensemble/model_12/bidirectional_6/forward_lstm_6/PartitionedCall/strided_slice/stack_2"], "attr": {"shrink_axis_mask": {"i": "1"}, "Index": {"type": "DT_INT32"}, "new_axis_mask": {"i": "0"}, "begin_mask": {"i": "0"}, "T": {"type": "DT_INT32"}, "end_mask": {"i": "0"}, "ellipsis_mask": {"i": "0"}}}, {"name": "StatefulPartitionedCall/cnn_forecast_ensemble/model_12/bidirectional_6/backward_lstm_6/zeros_1/packed", "op": "Pack", "input": ["StatefulPartitionedCall/cnn_forecast_ensemble/model_12/bidirectional_6/backward_lstm_6/strided_slice", "StatefulPartitionedCall/cnn_forecast_ensemble/model_12/bidirectional_6/backward_lstm_6/zeros_1/packed/1"], "attr": {"N": {"i": "2"}, "axis": {"i": "0"}, "T": {"type": "DT_INT32"}}}, {"name": "StatefulPartitionedCall/cnn_forecast_ensemble/model_12/bidirectional_6/backward_lstm_6/zeros/packed", "op": "Pack", "input": ["StatefulPartitionedCall/cnn_forecast_ensemble/model_12/bidirectional_6/backward_lstm_6/strided_slice", "StatefulPartitionedCall/cnn_forecast_ensemble/model_12/bidirectional_6/backward_lstm_6/zeros/packed/1"], "attr": {"N": {"i": "2"}, "axis": {"i": "0"}, "T": {"type": "DT_INT32"}}}, {"name": "StatefulPartitionedCall/cnn_forecast_ensemble/model_12/bidirectional_6/backward_lstm_6/PartitionedCall/TensorArrayUnstack/TensorListFromTensor", "op": "TensorListFromTensor", "input": ["StatefulPartitionedCall/cnn_forecast_ensemble/model_12/bidirectional_6/backward_lstm_6/PartitionedCall/ReverseV2", "StatefulPartitionedCall/cnn_forecast_ensemble/model_12/bidirectional_6/backward_lstm_6/PartitionedCall/TensorArrayUnstack/TensorListFromTensor/element_shape"], "attr": {"shape_type": {"type": "DT_INT32"}, "element_dtype": {"type": "DT_FLOAT"}}, "experimentalType": {"typeId": "TFT_PRODUCT", "args": [{"typeId": "TFT_ARRAY", "args": [{"typeId": "TFT_TENSOR", "args": [{"typeId": "TFT_FLOAT"}]}]}]}}, {"name": "StatefulPartitionedCall/cnn_forecast_ensemble/model_12/bidirectional_6/backward_lstm_6/PartitionedCall/strided_slice", "op": "StridedSlice", "input": ["StatefulPartitionedCall/cnn_forecast_ensemble/model_12/bidirectional_6/backward_lstm_6/PartitionedCall/Shape", "StatefulPartitionedCall/cnn_forecast_ensemble/model_12/bidirectional_6/backward_lstm_6/PartitionedCall/strided_slice/stack", "StatefulPartitionedCall/cnn_forecast_ensemble/model_12/bidirectional_6/backward_lstm_6/PartitionedCall/strided_slice/stack_1", "StatefulPartitionedCall/cnn_forecast_ensemble/model_12/bidirectional_6/backward_lstm_6/PartitionedCall/strided_slice/stack_2"], "attr": {"shrink_axis_mask": {"i": "1"}, "new_axis_mask": {"i": "0"}, "Index": {"type": "DT_INT32"}, "begin_mask": {"i": "0"}, "end_mask": {"i": "0"}, "T": {"type": "DT_INT32"}, "ellipsis_mask": {"i": "0"}}}, {"name": "StatefulPartitionedCall/cnn_forecast_ensemble/model_12/batch_normalization_13/batchnorm/mul_1", "op": "Mul", "input": ["StatefulPartitionedCall/cnn_forecast_ensemble/model_12/conv1d_17/Relu", "StatefulPartitionedCall/cnn_forecast_ensemble/model_12/batch_normalization_13/batchnorm/mul"], "attr": {"T": {"type": "DT_FLOAT"}}}, {"name": "StatefulPartitionedCall/cnn_forecast_ensemble/sequential/inception_v3/activation_11/Relu", "op": "_FusedConv2D", "input": ["StatefulPartitionedCall/cnn_forecast_ensemble/sequential/inception_v3/average_pooling2d/AvgPool", "StatefulPartitionedCall/cnn_forecast_ensemble/sequential/inception_v3/conv2d_11/Conv2D_weights", "StatefulPartitionedCall/cnn_forecast_ensemble/sequential/inception_v3/conv2d_11/Conv2D_bn_offset"], "device": "/device:CPU:0", "attr": {"num_host_args": {"i": "0"}, "data_format": {"s": "TkhXQw=="}, "filter_format": {"s": "SFdJTw=="}, "strides": {"list": {"i": ["1", "1", "1", "1"]}}, "num_args": {"i": "1"}, "fused_ops": {"list": {"s": ["Qmlhc0FkZA==", "UmVsdQ=="]}}, "TArgs": {"list": {"type": ["DT_FLOAT"]}}, "padding": {"s": "U0FNRQ=="}, "use_cudnn_on_gpu": {"b": true}, "leakyrelu_alpha": {"f": 0.2}, "epsilon": {"f": 0.0}, "T": {"type": "DT_FLOAT"}, "explicit_paddings": {"list": {}}, "dilations": {"list": {"i": ["1", "1", "1", "1"]}}}}, {"name": "StatefulPartitionedCall/cnn_forecast_ensemble/sequential/inception_v3/activation_7/Relu", "op": "_FusedConv2D", "input": ["StatefulPartitionedCall/cnn_forecast_ensemble/sequential/inception_v3/activation_6/Relu", "StatefulPartitionedCall/cnn_forecast_ensemble/sequential/inception_v3/conv2d_7/Conv2D_weights", "StatefulPartitionedCall/cnn_forecast_ensemble/sequential/inception_v3/conv2d_7/Conv2D_bn_offset"], "device": "/device:CPU:0", "attr": {"num_host_args": {"i": "0"}, "data_format": {"s": "TkhXQw=="}, "filter_format": {"s": "SFdJTw=="}, "strides": {"list": {"i": ["1", "1", "1", "1"]}}, "num_args": {"i": "1"}, "fused_ops": {"list": {"s": ["Qmlhc0FkZA==", "UmVsdQ=="]}}, "TArgs": {"list": {"type": ["DT_FLOAT"]}}, "padding": {"s": "U0FNRQ=="}, "use_cudnn_on_gpu": {"b": true}, "leakyrelu_alpha": {"f": 0.2}, "epsilon": {"f": 0.0}, "T": {"type": "DT_FLOAT"}, "explicit_paddings": {"list": {}}, "dilations": {"list": {"i": ["1", "1", "1", "1"]}}}}, {"name": "StatefulPartitionedCall/cnn_forecast_ensemble/sequential/inception_v3/activation_9/Relu", "op": "_FusedConv2D", "input": ["StatefulPartitionedCall/cnn_forecast_ensemble/sequential/inception_v3/activation_8/Relu", "StatefulPartitionedCall/cnn_forecast_ensemble/sequential/inception_v3/conv2d_9/Conv2D_weights", "StatefulPartitionedCall/cnn_forecast_ensemble/sequential/inception_v3/conv2d_9/Conv2D_bn_offset"], "device": "/device:CPU:0", "attr": {"num_host_args": {"i": "0"}, "data_format": {"s": "TkhXQw=="}, "filter_format": {"s": "SFdJTw=="}, "fused_ops": {"list": {"s": ["Qmlhc0FkZA==", "UmVsdQ=="]}}, "num_args": {"i": "1"}, "strides": {"list": {"i": ["1", "1", "1", "1"]}}, "TArgs": {"list": {"type": ["DT_FLOAT"]}}, "padding": {"s": "U0FNRQ=="}, "use_cudnn_on_gpu": {"b": true}, "leakyrelu_alpha": {"f": 0.2}, "epsilon": {"f": 0.0}, "T": {"type": "DT_FLOAT"}, "explicit_paddings": {"list": {}}, "dilations": {"list": {"i": ["1", "1", "1", "1"]}}}}, {"name": "StatefulPartitionedCall/cnn_forecast_ensemble/model_12/bidirectional_6/forward_lstm_6/zeros_1", "op": "Fill", "input": ["StatefulPartitionedCall/cnn_forecast_ensemble/model_12/bidirectional_6/forward_lstm_6/zeros_1/packed", "StatefulPartitionedCall/cnn_forecast_ensemble/model_12/bidirectional_6/forward_lstm_6/zeros_1/Const"], "attr": {"T": {"type": "DT_FLOAT"}, "index_type": {"type": "DT_INT32"}}}, {"name": "StatefulPartitionedCall/cnn_forecast_ensemble/model_12/bidirectional_6/forward_lstm_6/zeros", "op": "Fill", "input": ["StatefulPartitionedCall/cnn_forecast_ensemble/model_12/bidirectional_6/forward_lstm_6/zeros/packed", "StatefulPartitionedCall/cnn_forecast_ensemble/model_12/bidirectional_6/forward_lstm_6/zeros/Const"], "attr": {"T": {"type": "DT_FLOAT"}, "index_type": {"type": "DT_INT32"}}}, {"name": "StatefulPartitionedCall/cnn_forecast_ensemble/model_12/bidirectional_6/forward_lstm_6/PartitionedCall/while/merge/_504", "op": "Merge", "input": ["StatefulPartitionedCall/cnn_forecast_ensemble/model_12/bidirectional_6/forward_lstm_6/PartitionedCall/while/enter/_493", "StatefulPartitionedCall/cnn_forecast_ensemble/model_12/bidirectional_6/forward_lstm_6/PartitionedCall/while/next_iteration/_540"], "attr": {"N": {"i": "2"}, "T": {"type": "DT_VARIANT"}}}, {"name": "StatefulPartitionedCall/cnn_forecast_ensemble/model_12/bidirectional_6/forward_lstm_6/PartitionedCall/TensorArrayV2_1", "op": "TensorListReserve", "input": ["StatefulPartitionedCall/cnn_forecast_ensemble/model_12/bidirectional_6/forward_lstm_6/PartitionedCall/TensorArrayV2_1/element_shape", "StatefulPartitionedCall/cnn_forecast_ensemble/model_12/bidirectional_6/forward_lstm_6/PartitionedCall/strided_slice"], "attr": {"shape_type": {"type": "DT_INT32"}, "element_dtype": {"type": "DT_FLOAT"}}, "experimentalType": {"typeId": "TFT_PRODUCT", "args": [{"typeId": "TFT_ARRAY", "args": [{"typeId": "TFT_TENSOR", "args": [{"typeId": "TFT_FLOAT"}]}]}]}}, {"name": "StatefulPartitionedCall/cnn_forecast_ensemble/model_12/bidirectional_6/forward_lstm_6/PartitionedCall/while/enter/_492", "op": "Enter", "input": ["StatefulPartitionedCall/cnn_forecast_ensemble/model_12/bidirectional_6/forward_lstm_6/PartitionedCall/strided_slice"], "attr": {"is_constant": {"b": false}, "frame_name": {"s": "U3RhdGVmdWxQYXJ0aXRpb25lZENhbGwvY25uX2ZvcmVjYXN0X2Vuc2VtYmxlL21vZGVsXzEyL2JpZGlyZWN0aW9uYWxfNi9mb3J3YXJkX2xzdG1fNi9QYXJ0aXRpb25lZENhbGwvd2hpbGU="}, "T": {"type": "DT_INT32"}, "parallel_iterations": {"i": "32"}}}, {"name": "StatefulPartitionedCall/cnn_forecast_ensemble/model_12/bidirectional_6/backward_lstm_6/zeros_1", "op": "Fill", "input": ["StatefulPartitionedCall/cnn_forecast_ensemble/model_12/bidirectional_6/backward_lstm_6/zeros_1/packed", "StatefulPartitionedCall/cnn_forecast_ensemble/model_12/bidirectional_6/backward_lstm_6/zeros_1/Const"], "attr": {"T": {"type": "DT_FLOAT"}, "index_type": {"type": "DT_INT32"}}}, {"name": "StatefulPartitionedCall/cnn_forecast_ensemble/model_12/bidirectional_6/backward_lstm_6/zeros", "op": "Fill", "input": ["StatefulPartitionedCall/cnn_forecast_ensemble/model_12/bidirectional_6/backward_lstm_6/zeros/packed", "StatefulPartitionedCall/cnn_forecast_ensemble/model_12/bidirectional_6/backward_lstm_6/zeros/Const"], "attr": {"T": {"type": "DT_FLOAT"}, "index_type": {"type": "DT_INT32"}}}, {"name": "StatefulPartitionedCall/cnn_forecast_ensemble/model_12/bidirectional_6/backward_lstm_6/PartitionedCall/while/enter/_553", "op": "Enter", "input": ["StatefulPartitionedCall/cnn_forecast_ensemble/model_12/bidirectional_6/backward_lstm_6/PartitionedCall/TensorArrayUnstack/TensorListFromTensor"], "attr": {"is_constant": {"b": false}, "frame_name": {"s": "U3RhdGVmdWxQYXJ0aXRpb25lZENhbGwvY25uX2ZvcmVjYXN0X2Vuc2VtYmxlL21vZGVsXzEyL2JpZGlyZWN0aW9uYWxfNi9iYWNrd2FyZF9sc3RtXzYvUGFydGl0aW9uZWRDYWxsL3doaWxl"}, "T": {"type": "DT_VARIANT"}, "parallel_iterations": {"i": "32"}}}, {"name": "StatefulPartitionedCall/cnn_forecast_ensemble/model_12/bidirectional_6/backward_lstm_6/PartitionedCall/TensorArrayV2_1", "op": "TensorListReserve", "input": ["StatefulPartitionedCall/cnn_forecast_ensemble/model_12/bidirectional_6/backward_lstm_6/PartitionedCall/TensorArrayV2_1/element_shape", "StatefulPartitionedCall/cnn_forecast_ensemble/model_12/bidirectional_6/backward_lstm_6/PartitionedCall/strided_slice"], "attr": {"shape_type": {"type": "DT_INT32"}, "element_dtype": {"type": "DT_FLOAT"}}, "experimentalType": {"typeId": "TFT_PRODUCT", "args": [{"typeId": "TFT_ARRAY", "args": [{"typeId": "TFT_TENSOR", "args": [{"typeId": "TFT_FLOAT"}]}]}]}}, {"name": "StatefulPartitionedCall/cnn_forecast_ensemble/model_12/bidirectional_6/backward_lstm_6/PartitionedCall/while/enter/_552", "op": "Enter", "input": ["StatefulPartitionedCall/cnn_forecast_ensemble/model_12/bidirectional_6/backward_lstm_6/PartitionedCall/strided_slice"], "attr": {"is_constant": {"b": false}, "frame_name": {"s": "U3RhdGVmdWxQYXJ0aXRpb25lZENhbGwvY25uX2ZvcmVjYXN0X2Vuc2VtYmxlL21vZGVsXzEyL2JpZGlyZWN0aW9uYWxf…
l/cnn_forecast_ensemble/model_12/bidirectional_7/forward_lstm_7/PartitionedCall/strided_slice/stack", "shape": [1], "dtype": "int32"}, {"name": "StatefulPartitionedCall/cnn_forecast_ensemble/model_12/bidirectional_7/forward_lstm_7/PartitionedCall/strided_slice/stack_1", "shape": [1], "dtype": "int32"}, {"name": "StatefulPartitionedCall/cnn_forecast_ensemble/model_12/bidirectional_7/forward_lstm_7/PartitionedCall/strided_slice/stack_2", "shape": [1], "dtype": "int32"}, {"name": "StatefulPartitionedCall/cnn_forecast_ensemble/model_12/bidirectional_7/forward_lstm_7/PartitionedCall/while/loop_counter", "shape": [], "dtype": "int32"}, {"name": "StatefulPartitionedCall/cnn_forecast_ensemble/model_12/bidirectional_7/forward_lstm_7/PartitionedCall/TensorArrayV2Stack/TensorListStack/element_shape", "shape": [2], "dtype": "int32"}, {"name": "StatefulPartitionedCall/cnn_forecast_ensemble/model_12/bidirectional_7/forward_lstm_7/PartitionedCall/strided_slice_2/stack", "shape": [1], "dtype": "int32"}, {"name": "StatefulPartitionedCall/cnn_forecast_ensemble/model_12/bidirectional_7/forward_lstm_7/PartitionedCall/strided_slice_2/stack_1", "shape": [1], "dtype": "int32"}, {"name": "StatefulPartitionedCall/cnn_forecast_ensemble/model_12/bidirectional_7/forward_lstm_7/PartitionedCall/strided_slice_2/stack_2", "shape": [1], "dtype": "int32"}, {"name": "StatefulPartitionedCall/cnn_forecast_ensemble/model_12/bidirectional_7/backward_lstm_7/PartitionedCall/TensorArrayV2_1/element_shape", "shape": [2], "dtype": "int32"}, {"name": "StatefulPartitionedCall/cnn_forecast_ensemble/model_12/bidirectional_7/backward_lstm_7/PartitionedCall/TensorArrayV2_1/num_elements", "shape": [], "dtype": "int32"}, {"name": "StatefulPartitionedCall/cnn_forecast_ensemble/model_12/bidirectional_7/backward_lstm_7/zeros_1/packed/1", "shape": [], "dtype": "int32"}, {"name": "StatefulPartitionedCall/cnn_forecast_ensemble/model_12/bidirectional_7/backward_lstm_7/zeros_1/Const", "shape": [], "dtype": "float32"}, {"name": "StatefulPartitionedCall/cnn_forecast_ensemble/model_12/bidirectional_7/backward_lstm_7/PartitionedCall/ReverseV2/axis", "shape": [1], "dtype": "int32"}, {"name": "StatefulPartitionedCall/cnn_forecast_ensemble/model_12/bidirectional_7/backward_lstm_7/PartitionedCall/TensorArrayUnstack/TensorListFromTensor/element_shape", "shape": [2], "dtype": "int32"}, {"name": "StatefulPartitionedCall/cnn_forecast_ensemble/model_12/bidirectional_7/backward_lstm_7/Read/ReadVariableOp", "shape": [64, 64], "dtype": "float32"}, {"name": "StatefulPartitionedCall/cnn_forecast_ensemble/model_12/bidirectional_7/backward_lstm_7/strided_slice/stack", "shape": [1], "dtype": "int32"}, {"name": "StatefulPartitionedCall/cnn_forecast_ensemble/model_12/bidirectional_7/backward_lstm_7/strided_slice/stack_1", "shape": [1], "dtype": "int32"}, {"name": "StatefulPartitionedCall/cnn_forecast_ensemble/model_12/bidirectional_7/backward_lstm_7/strided_slice/stack_2", "shape": [1], "dtype": "int32"}, {"name": "StatefulPartitionedCall/cnn_forecast_ensemble/model_12/bidirectional_7/backward_lstm_7/zeros/packed/1", "shape": [], "dtype": "int32"}, {"name": "StatefulPartitionedCall/cnn_forecast_ensemble/model_12/bidirectional_7/backward_lstm_7/zeros/Const", "shape": [], "dtype": "float32"}, {"name": "StatefulPartitionedCall/cnn_forecast_ensemble/model_12/bidirectional_7/backward_lstm_7/Read_1/ReadVariableOp", "shape": [16, 64], "dtype": "float32"}, {"name": "StatefulPartitionedCall/cnn_forecast_ensemble/model_12/bidirectional_7/backward_lstm_7/Read_2/ReadVariableOp", "shape": [64], "dtype": "float32"}, {"name": "StatefulPartitionedCall/cnn_forecast_ensemble/model_12/bidirectional_7/backward_lstm_7/PartitionedCall/time", "shape": [], "dtype": "int32"}, {"name": "StatefulPartitionedCall/cnn_forecast_ensemble/model_12/bidirectional_6/forward_lstm_6/PartitionedCall/TensorArrayV2_1/element_shape", "shape": [2], "dtype": "int32"}, {"name": "StatefulPartitionedCall/cnn_forecast_ensemble/model_12/bidirectional_6/forward_lstm_6/zeros_1/packed/1", "shape": [], "dtype": "int32"}, {"name": "StatefulPartitionedCall/cnn_forecast_ensemble/model_12/bidirectional_6/forward_lstm_6/zeros_1/Const", "shape": [], "dtype": "float32"}, {"name": "StatefulPartitionedCall/cnn_forecast_ensemble/model_12/bidirectional_6/forward_lstm_6/PartitionedCall/TensorArrayUnstack/TensorListFromTensor/element_shape", "shape": [2], "dtype": "int32"}, {"name": "StatefulPartitionedCall/cnn_forecast_ensemble/model_12/bidirectional_6/forward_lstm_6/Read/ReadVariableOp", "shape": [16, 128], "dtype": "float32"}, {"name": "StatefulPartitionedCall/cnn_forecast_ensemble/model_12/bidirectional_6/forward_lstm_6/strided_slice/stack", "shape": [1], "dtype": "int32"}, {"name": "StatefulPartitionedCall/cnn_forecast_ensemble/model_12/bidirectional_6/forward_lstm_6/strided_slice/stack_1", "shape": [1], "dtype": "int32"}, {"name": "StatefulPartitionedCall/cnn_forecast_ensemble/model_12/bidirectional_6/forward_lstm_6/strided_slice/stack_2", "shape": [1], "dtype": "int32"}, {"name": "StatefulPartitionedCall/cnn_forecast_ensemble/model_12/bidirectional_6/forward_lstm_6/zeros/packed/1", "shape": [], "dtype": "int32"}, {"name": "StatefulPartitionedCall/cnn_forecast_ensemble/model_12/bidirectional_6/forward_lstm_6/zeros/Const", "shape": [], "dtype": "float32"}, {"name": "StatefulPartitionedCall/cnn_forecast_ensemble/model_12/bidirectional_6/forward_lstm_6/Read_1/ReadVariableOp", "shape": [32, 128], "dtype": "float32"}, {"name": "StatefulPartitionedCall/cnn_forecast_ensemble/model_12/bidirectional_6/forward_lstm_6/Read_2/ReadVariableOp", "shape": [128], "dtype": "float32"}, {"name": "StatefulPartitionedCall/cnn_forecast_ensemble/model_12/bidirectional_6/forward_lstm_6/PartitionedCall/time", "shape": [], "dtype": "int32"}, {"name": "StatefulPartitionedCall/cnn_forecast_ensemble/model_12/bidirectional_6/forward_lstm_6/PartitionedCall/transpose/perm", "shape": [3], "dtype": "int32"}, {"name": "StatefulPartitionedCall/cnn_forecast_ensemble/model_12/bidirectional_6/forward_lstm_6/PartitionedCall/strided_slice/stack", "shape": [1], "dtype": "int32"}, {"name": "StatefulPartitionedCall/cnn_forecast_ensemble/model_12/bidirectional_6/forward_lstm_6/PartitionedCall/strided_slice/stack_1", "shape": [1], "dtype": "int32"}, {"name": "StatefulPartitionedCall/cnn_forecast_ensemble/model_12/bidirectional_6/forward_lstm_6/PartitionedCall/strided_slice/stack_2", "shape": [1], "dtype": "int32"}, {"name": "StatefulPartitionedCall/cnn_forecast_ensemble/model_12/bidirectional_6/forward_lstm_6/PartitionedCall/while/loop_counter", "shape": [], "dtype": "int32"}, {"name": "StatefulPartitionedCall/cnn_forecast_ensemble/model_12/bidirectional_6/forward_lstm_6/PartitionedCall/TensorArrayV2Stack/TensorListStack/element_shape", "shape": [2], "dtype": "int32"}, {"name": "StatefulPartitionedCall/cnn_forecast_ensemble/model_12/bidirectional_6/forward_lstm_6/PartitionedCall/transpose_1/perm", "shape": [3], "dtype": "int32"}, {"name": "StatefulPartitionedCall/cnn_forecast_ensemble/model_12/bidirectional_6/backward_lstm_6/PartitionedCall/TensorArrayV2_1/element_shape", "shape": [2], "dtype": "int32"}, {"name": "StatefulPartitionedCall/cnn_forecast_ensemble/model_12/bidirectional_6/backward_lstm_6/zeros_1/packed/1", "shape": [], "dtype": "int32"}, {"name": "StatefulPartitionedCall/cnn_forecast_ensemble/model_12/bidirectional_6/backward_lstm_6/zeros_1/Const", "shape": [], "dtype": "float32"}, {"name": "StatefulPartitionedCall/cnn_forecast_ensemble/model_12/bidirectional_6/backward_lstm_6/PartitionedCall/ReverseV2/axis", "shape": [1], "dtype": "int32"}, {"name": "StatefulPartitionedCall/cnn_forecast_ensemble/model_12/bidirectional_6/backward_lstm_6/PartitionedCall/TensorArrayUnstack/TensorListFromTensor/element_shape", "shape": [2], "dtype": "int32"}, {"name": "StatefulPartitionedCall/cnn_forecast_ensemble/model_12/bidirectional_6/backward_lstm_6/Read/ReadVariableOp", "shape": [16, 128], "dtype": "float32"}, {"name": "StatefulPartitionedCall/cnn_forecast_ensemble/model_12/bidirectional_6/backward_lstm_6/strided_slice/stack", "shape": [1], "dtype": "int32"}, {"name": "StatefulPartitionedCall/cnn_forecast_ensemble/model_12/bidirectional_6/backward_lstm_6/strided_slice/stack_1", "shape": [1], "dtype": "int32"}, {"name": "StatefulPartitionedCall/cnn_forecast_ensemble/model_12/bidirectional_6/backward_lstm_6/strided_slice/stack_2", "shape": [1], "dtype": "int32"}, {"name": "StatefulPartitionedCall/cnn_forecast_ensemble/model_12/bidirectional_6/backward_lstm_6/zeros/packed/1", "shape": [], "dtype": "int32"}, {"name": "StatefulPartitionedCall/cnn_forecast_ensemble/model_12/bidirectional_6/backward_lstm_6/zeros/Const", "shape": [], "dtype": "float32"}, {"name": "StatefulPartitionedCall/cnn_forecast_ensemble/model_12/bidirectional_6/backward_lstm_6/Read_1/ReadVariableOp", "shape": [32, 128], "dtype": "float32"}, {"name": "StatefulPartitionedCall/cnn_forecast_ensemble/model_12/bidirectional_6/backward_lstm_6/Read_2/ReadVariableOp", "shape": [128], "dtype": "float32"}, {"name": "StatefulPartitionedCall/cnn_forecast_ensemble/model_12/bidirectional_6/backward_lstm_6/PartitionedCall/time", "shape": [], "dtype": "int32"}, {"name": "StatefulPartitionedCall/cnn_forecast_ensemble/model_12/conv1d_15/Conv1D/ExpandDims/dim", "shape": [], "dtype": "int32"}, {"name": "StatefulPartitionedCall/cnn_forecast_ensemble/model_12/conv1d_15/Conv1D/ExpandDims_1", "shape": [1, 3, 18, 16], "dtype": "float32"}, {"name": "StatefulPartitionedCall/cnn_forecast_ensemble/model_12/conv1d_15/BiasAdd/ReadVariableOp", "shape": [16], "dtype": "float32"}, {"name": "StatefulPartitionedCall/cnn_forecast_ensemble/model_12/batch_normalization_12/batchnorm/mul", "shape": [16], "dtype": "float32"}, {"name": "StatefulPartitionedCall/cnn_forecast_ensemble/model_12/batch_normalization_12/batchnorm/sub", "shape": [16], "dtype": "float32"}, {"name": "StatefulPartitionedCall/cnn_forecast_ensemble/model_12/bidirectional_6/backward_lstm_6/PartitionedCall/transpose/perm", "shape": [3], "dtype": "int32"}, {"name": "StatefulPartitionedCall/cnn_forecast_ensemble/model_12/bidirectional_6/backward_lstm_6/PartitionedCall/strided_slice/stack", "shape": [1], "dtype": "int32"}, {"name": "StatefulPartitionedCall/cnn_forecast_ensemble/model_12/bidirectional_6/backward_lstm_6/PartitionedCall/strided_slice/stack_1", "shape": [1], "dtype": "int32"}, {"name": "StatefulPartitionedCall/cnn_forecast_ensemble/model_12/bidirectional_6/backward_lstm_6/PartitionedCall/strided_slice/stack_2", "shape": [1], "dtype": "int32"}, {"name": "StatefulPartitionedCall/cnn_forecast_ensemble/model_12/bidirectional_6/backward_lstm_6/PartitionedCall/while/loop_counter", "shape": [], "dtype": "int32"}, {"name": "StatefulPartitionedCall/cnn_forecast_ensemble/model_12/bidirectional_6/backward_lstm_6/PartitionedCall/TensorArrayV2Stack/TensorListStack/element_shape", "shape": [2], "dtype": "int32"}, {"name": "StatefulPartitionedCall/cnn_forecast_ensemble/model_12/bidirectional_6/backward_lstm_6/PartitionedCall/transpose_1/perm", "shape": [3], "dtype": "int32"}, {"name": "StatefulPartitionedCall/cnn_forecast_ensemble/model_12/bidirectional_6/ReverseV2/axis", "shape": [1], "dtype": "int32"}, {"name": "StatefulPartitionedCall/cnn_forecast_ensemble/model_12/bidirectional_6/concat/axis", "shape": [], "dtype": "int32"}, {"name": "StatefulPartitionedCall/cnn_forecast_ensemble/model_12/bidirectional_7/backward_lstm_7/PartitionedCall/transpose/perm", "shape": [3], "dtype": "int32"}, {"name": "StatefulPartitionedCall/cnn_forecast_ensemble/model_12/bidirectional_7/backward_lstm_7/PartitionedCall/strided_slice/stack", "shape": [1], "dtype": "int32"}, {"name": "StatefulPartitionedCall/cnn_forecast_ensemble/model_12/bidirectional_7/backward_lstm_7/PartitionedCall/strided_slice/stack_1", "shape": [1], "dtype": "int32"}, {"name": "StatefulPartitionedCall/cnn_forecast_ensemble/model_12/bidirectional_7/backward_lstm_7/PartitionedCall/strided_slice/stack_2", "shape": [1], "dtype": "int32"}, {"name": "StatefulPartitionedCall/cnn_forecast_ensemble/model_12/bidirectional_7/backward_lstm_7/PartitionedCall/while/loop_counter", "shape": [], "dtype": "int32"}, {"name": "StatefulPartitionedCall/cnn_forecast_ensemble/model_12/bidirectional_7/backward_lstm_7/PartitionedCall/TensorArrayV2Stack/TensorListStack/element_shape", "shape": [2], "dtype": "int32"}, {"name": "StatefulPartitionedCall/cnn_forecast_ensemble/model_12/bidirectional_7/backward_lstm_7/PartitionedCall/strided_slice_2/stack", "shape": [1], "dtype": "int32"}, {"name": "StatefulPartitionedCall/cnn_forecast_ensemble/model_12/bidirectional_7/backward_lstm_7/PartitionedCall/strided_slice_2/stack_1", "shape": [1], "dtype": "int32"}, {"name": "StatefulPartitionedCall/cnn_forecast_ensemble/model_12/bidirectional_7/backward_lstm_7/PartitionedCall/strided_slice_2/stack_2", "shape": [1], "dtype": "int32"}, {"name": "StatefulPartitionedCall/cnn_forecast_ensemble/model_12/bidirectional_7/concat/axis", "shape": [], "dtype": "int32"}, {"name": "StatefulPartitionedCall/cnn_forecast_ensemble/model_12/dense_12/MatMul/ReadVariableOp", "shape": [32, 32], "dtype": "float32"}, {"name": "StatefulPartitionedCall/cnn_forecast_ensemble/model_12/dense_12/BiasAdd/ReadVariableOp", "shape": [32], "dtype": "float32"}, {"name": "StatefulPartitionedCall/cnn_forecast_ensemble/model_12/dense_13/MatMul/ReadVariableOp", "shape": [32, 8], "dtype": "float32"}, {"name": "StatefulPartitionedCall/cnn_forecast_ensemble/model_12/dense_13/BiasAdd/ReadVariableOp", "shape": [8], "dtype": "float32"}, {"name": "StatefulPartitionedCall/cnn_forecast_ensemble/model_12/conv1d_16/Conv1D/ExpandDims/dim", "shape": [], "dtype": "int32"}, {"name": "StatefulPartitionedCall/cnn_forecast_ensemble/model_12/conv1d_16/Conv1D/ExpandDims_1", "shape": [1, 1, 18, 32], "dtype": "float32"}, {"name": "StatefulPartitionedCall/cnn_forecast_ensemble/model_12/conv1d_16/BiasAdd/ReadVariableOp", "shape": [32], "dtype": "float32"}, {"name": "StatefulPartitionedCall/cnn_forecast_ensemble/model_12/conv1d_17/Conv1D/ExpandDims/dim", "shape": [], "dtype": "int32"}, {"name": "StatefulPartitionedCall/cnn_forecast_ensemble/model_12/conv1d_17/Conv1D/ExpandDims_1", "shape": [1, 3, 32, 32], "dtype": "float32"}, {"name": "StatefulPartitionedCall/cnn_forecast_ensemble/model_12/conv1d_17/BiasAdd/ReadVariableOp", "shape": [32], "dtype": "float32"}, {"name": "StatefulPartitionedCall/cnn_forecast_ensemble/model_12/batch_normalization_13/batchnorm/mul", "shape": [32], "dtype": "float32"}, {"name": "StatefulPartitionedCall/cnn_forecast_ensemble/model_12/batch_normalization_13/batchnorm/sub", "shape": [32], "dtype": "float32"}, {"name": "StatefulPartitionedCall/cnn_forecast_ensemble/model_12/conv1d_18/Conv1D/SpaceToBatchND/block_shape", "shape": [1], "dtype": "int32"}, {"name": "StatefulPartitionedCall/cnn_forecast_ensemble/model_12/conv1d_18/Conv1D/SpaceToBatchND/paddings", "shape": [1, 2], "dtype": "int32"}, {"name": "StatefulPartitionedCall/cnn_forecast_ensemble/model_12/conv1d_18/Conv1D/ExpandDims/dim", "shape": [], "dtype": "int32"}, {"name": "StatefulPartitionedCall/cnn_forecast_ensemble/model_12/conv1d_18/Conv1D/ExpandDims_1", "shape": [1, 3, 32, 32], "dtype": "float32"}, {"name": "StatefulPartitionedCall/cnn_forecast_ensemble/model_12/conv1d_18/Conv1D/BatchToSpaceND/block_shape", "shape": [1], "dtype": "int32"}, {"name": "StatefulPartitionedCall/cnn_forecast_ensemble/model_12/conv1d_18/Conv1D/BatchToSpaceND/crops", "shape": [1, 2], "dtype": "int32"}, {"name": "StatefulPartitionedCall/cnn_forecast_ensemble/model_12/conv1d_18/BiasAdd/ReadVariableOp", "shape": [32], "dtype": "float32"}, {"name": "StatefulPartitionedCall/cnn_forecast_ensemble/model_12/batch_normalization_14/batchnorm/mul", "shape": [32], "dtype": "float32"}, {"name": "StatefulPartitionedCall/cnn_forecast_ensemble/model_12/batch_normalization_14/batchnorm/sub", "shape": [32], "dtype": "float32"}, {"name": "StatefulPartitionedCall/cnn_forecast_ensemble/model_12/conv1d_19/Conv1D/SpaceToBatchND/block_shape", "shape": [1], "dtype": "int32"}, {"name": "StatefulPartitionedCall/cnn_forecast_ensemble/model_12/conv1d_19/Conv1D/SpaceToBatchND/paddings", "shape": [1, 2], "dtype": "int32"}, {"name": "StatefulPartitionedCall/cnn_forecast_ensemble/model_12/conv1d_19/Conv1D/ExpandDims/dim", "shape": [], "dtype": "int32"}, {"name": "StatefulPartitionedCall/cnn_forecast_ensemble/model_12/conv1d_19/Conv1D/ExpandDims_1", "shape": [1, 3, 32, 32], "dtype": "float32"}, {"name": "StatefulPartitionedCall/cnn_forecast_ensemble/model_12/conv1d_19/Conv1D/BatchToSpaceND/block_shape", "shape": [1], "dtype": "int32"}, {"name": "StatefulPartitionedCall/cnn_forecast_ensemble/model_12/conv1d_19/Conv1D/BatchToSpaceND/crops", "shape": [1, 2], "dtype": "int32"}, {"name": "StatefulPartitionedCall/cnn_forecast_ensemble/model_12/conv1d_19/BiasAdd/ReadVariableOp", "shape": [32], "dtype": "float32"}, {"name": "StatefulPartitionedCall/cnn_forecast_ensemble/model_12/batch_normalization_15/batchnorm/mul", "shape": [32], "dtype": "float32"}, {"name": "StatefulPartitionedCall/cnn_forecast_ensemble/model_12/batch_normalization_15/batchnorm/sub", "shape": [32], "dtype": "float32"}, {"name": "StatefulPartitionedCall/cnn_forecast_ensemble/model_12/global_average_pooling1d_3/Mean/reduction_indices", "shape": [], "dtype": "int32"}, {"name": "StatefulPartitionedCall/cnn_forecast_ensemble/model_12/dense_14/MatMul/ReadVariableOp", "shape": [32, 64], "dtype": "float32"}, {"name": "StatefulPartitionedCall/cnn_forecast_ensemble/model_12/dense_14/BiasAdd/ReadVariableOp", "shape": [64], "dtype": "float32"}, {"name": "StatefulPartitionedCall/cnn_forecast_ensemble/model_12/dense_15/MatMul/ReadVariableOp", "shape": [64, 8], "dtype": "float32"}, {"name": "StatefulPartitionedCall/cnn_forecast_ensemble/model_12/dense_15/BiasAdd/ReadVariableOp", "shape": [8], "dtype": "float32"}, {"name": "ConstantFolding/StatefulPartitionedCall/cnn_forecast_ensemble/model_12/average_4/truediv_recip", "shape": [], "dtype": "float32"}, {"name": "unknown_45", "shape": [8, 3], "dtype": "float32"}, {"name": "StatefulPartitionedCall/cnn_forecast_ensemble/normalize3/Sum/reduction_indices", "shape": [], "dtype": "int32"}, {"name": "ConstantFolding/StatefulPartitionedCall/cnn_forecast_ensemble/ensemble_avg/truediv_recip", "shape": [], "dtype": "float32"}, {"name": "StatefulPartitionedCall/cnn_forecast_ensemble/sequential/inception_v3/conv2d_57/Conv2D_weights", "shape": [7, 1, 160, 160], "dtype": "float32"}, {"name": "StatefulPartitionedCall/cnn_forecast_ensemble/sequential/inception_v3/conv2d_81/Conv2D_bn_offset", "shape": [384], "dtype": "float32"}, {"name": "StatefulPartitionedCall/cnn_forecast_ensemble/sequential/inception_v3/conv2d_57/Conv2D_bn_offset", "shape": [160], "dtype": "float32"}, {"name": "StatefulPartitionedCall/cnn_forecast_ensemble/sequential/inception_v3/conv2d_58/Conv2D_weights", "shape": [1, 7, 160, 192], "dtype": "float32"}, {"name": "StatefulPartitionedCall/cnn_forecast_ensemble/sequential/inception_v3/conv2d_58/Conv2D_bn_offset", "shape": [192], "dtype": "float32"}, {"name": "StatefulPartitionedCall/cnn_forecast_ensemble/sequential/inception_v3/conv2d_82/Conv2D_weights", "shape": [1, 3, 384, 384], "dtype": "float32"}, {"name": "StatefulPartitionedCall/cnn_forecast_ensemble/sequential/inception_v3/conv2d/Conv2D_weights", "shape": [3, 3, 3, 32], "dtype": "float32"}, {"name": "StatefulPartitionedCall/cnn_forecast_ensemble/sequential/inception_v3/conv2d_60/Conv2D_weights", "shape": [1, 1, 768, 192], "dtype": "float32"}, {"name": "StatefulPartitionedCall/cnn_forecast_ensemble/sequential/inception_v3/conv2d/Conv2D_bn_offset", "shape": [32], "dtype": "float32"}, {"name": "StatefulPartitionedCall/cnn_forecast_ensemble/sequential/inception_v3/conv2d_91/Conv2D_weights", "shape": [1, 3, 384, 384], "dtype": "float32"}, {"name": "StatefulPartitionedCall/cnn_forecast_ensemble/sequential/inception_v3/conv2d_1/Conv2D_weights", "shape": [3, 3, 32, 32], "dtype": "float32"}, {"name": "StatefulPartitionedCall/cnn_forecast_ensemble/sequential/inception_v3/conv2d_60/Conv2D_bn_offset", "shape": [192], "dtype": "float32"}, {"name": "StatefulPartitionedCall/cnn_forecast_ensemble/sequential/inception_v3/conv2d_1/Conv2D_bn_offset", "shape": [32], "dtype": "float32"}, {"name": "StatefulPartitionedCall/cnn_forecast_ensemble/sequential/inception_v3/conv2d_82/Conv2D_bn_offset", "shape": [384], "dtype": "float32"}, {"name": "StatefulPartitionedCall/cnn_forecast_ensemble/sequential/inception_v3/conv2d_2/Conv2D_weights", "shape": [3, 3, 32, 64], "dtype": "float32"}, {"name": "StatefulPartitionedCall/cnn_forecast_ensemble/sequential/inception_v3/conv2d_2/Conv2D_bn_offset", "shape": [64], "dtype": "float32"}, {"name": "StatefulPartitionedCall/cnn_forecast_ensemble/sequential/inception_v3/conv2d_61/Conv2D_weights", "shape": [1, 1, 768, 192], "dtype": "float32"}, {"name": "StatefulPartitionedCall/cnn_forecast_ensemble/sequential/inception_v3/conv2d_3/Conv2D_weights", "shape": [1, 1, 64, 80], "dtype": "float32"}, {"name": "StatefulPartitionedCall/cnn_forecast_ensemble/sequential/inception_v3/conv2d_3/Conv2D_bn_offset", "shape": [80], "dtype": "float32"}, {"name": "StatefulPartitionedCall/cnn_forecast_ensemble/sequential/inception_v3/conv2d_61/Conv2D_bn_offset", "shape": [192], "dtype": "float32"}, {"name": "StatefulPartitionedCall/cnn_forecast_ensemble/sequential/inception_v3/conv2d_4/Conv2D_weights", "shape": [3, 3, 80, 192], "dtype": "float32"}, {"name": "StatefulPartitionedCall/cnn_forecast_ensemble/sequential/inception_v3/conv2d_4/Conv2D_bn_offset", "shape": [192], "dtype": "float32"}, {"name": "StatefulPartitionedCall/cnn_forecast_ensemble/sequential/inception_v3/conv2d_5/Conv2D_weights", "shape": [1, 1, 192, 64], "dtype": "float32"}, {"name": "StatefulPartitionedCall/cnn_forecast_ensemble/sequential/inception_v3/conv2d_64/Conv2D_weights", "shape": [1, 1, 768, 192], "dtype": "float32"}, {"name": "StatefulPartitionedCall/cnn_forecast_ensemble/sequential/inception_v3/conv2d_5/Conv2D_bn_offset", "shape": [64], "dtype": "float32"}, {"name": "StatefulPartitionedCall/cnn_forecast_ensemble/sequential/inception_v3/conv2d_83/Conv2D_weights", "shape": [3, 1, 384, 384], "dtype": "float32"}, {"name": "StatefulPartitionedCall/cnn_forecast_ensemble/sequential/inception_v3/conv2d_6/Conv2D_weights", "shape": [1, 1, 192, 48], "dtype": "float32"}, {"name": "StatefulPartitionedCall/cnn_forecast_ensemble/sequential/inception_v3/conv2d_64/Conv2D_bn_offset", "shape": [192], "dtype": "float32"}, {"name": "StatefulPartitionedCall/cnn_forecast_ensemble/sequential/inception_v3/conv2d_6/Conv2D_bn_offset", "shape": [48], "dtype": "float32"}, {"name": "StatefulPartitionedCall/cnn_forecast_ensemble/sequential/inception_v3/conv2d_91/Conv2D_bn_offset", "shape": [384], "dtype": "float32"}, {"name": "StatefulPartitionedCall/cnn_forecast_ensemble/sequential/inception_v3/conv2d_8/Conv2D_weights", "shape": [1, 1, 192, 64], "dtype": "float32"}, {"name": "StatefulPartitionedCall/cnn_forecast_ensemble/sequential/inception_v3/conv2d_8/Conv2D_bn_offset", "shape": [64], "dtype": "float32"}, {"name": "StatefulPartitionedCall/cnn_forecast_ensemble/sequential/inception_v3/conv2d_69/Conv2D_weights", "shape": [1, 1, 768, 192], "dtype": "float32"}, {"name": "StatefulPartitionedCall/cnn_forecast_ensemble/sequential/inception_v3/conv2d_11/Conv2D_weights", "shape": [1, 1, 192, 32], "dtype": "float32"}, {"name": "StatefulPartitionedCall/cnn_forecast_ensemble/sequential/inception_v3/conv2d_83/Conv2D_bn_offset", "shape": [384], "dtype": "float32"}, {"name": "StatefulPartitionedCall/cnn_forecast_ensemble/sequential/inception_v3/conv2d_11/Conv2D_bn_offset", "shape": [32], "dtype": "float32"}, {"name": "StatefulPartitionedCall/cnn_forecast_ensemble/sequential/inception_v3/conv2d_69/Conv2D_bn_offset", "shape": [192], "dtype": "float32"}, {"name": "StatefulPartitionedCall/cnn_forecast_ensemble/sequential/inception_v3/conv2d_7/Conv2D_weights", "shape": [5, 5, 48, 64], "dtype": "float32"}, {"name": "StatefulPartitionedCall/cnn_forecast_ensemble/sequential/inception_v3/conv2d_7/Conv2D_bn_offset", "shape": [64], "dtype": "float32"}, {"name": "StatefulPartitionedCall/cnn_forecast_ensemble/sequential/inception_v3/conv2d_9/Conv2D_weights", "shape": [3, 3, 64, 96], "dtype": "float32"}, {"name": "StatefulPartitionedCall/cnn_forecast_ensemble/sequential/inception_v3/conv2d_62/Conv2D_weights", "shape": [1, 7, 192, 192], "dtype": "float32"}, {"name": "StatefulPartitionedCall/cnn_forecast_ensemble/sequential/inception_v3/conv2d_9/Conv2D_bn_offset", "shape": [96], "dtype": "float32"}, {"name": "StatefulPartitionedCall/cnn_forecast_ensemble/sequential/inception_v3/conv2d_10/Conv2D_weights", "shape": [3, 3, 96, 96], "dtype": "float32"}, {"name": "StatefulPartitionedCall/cnn_forecast_ensemble/sequential/inception_v3/conv2d_62/Conv2D_bn_offset", "shape": [192], "dtype": "float32"}, {"name": "StatefulPartitionedCall/cnn_forecast_ensemble/sequential/inception_v3/conv2d_10/Conv2D_bn_offset", "shape": [96], "dtype": "float32"}, {"name": "StatefulPartitionedCall/cnn_forecast_ensemble/sequential/inception_v3/conv2d_12/Conv2D_weights", "shape": [1, 1, 256, 64], "dtype": "float32"}, {"name": "StatefulPartitionedCall/cnn_forecast_ensemble/sequential/inception_v3/conv2d_12/Conv2D_bn_offset", "shape": [64], "dtype": "float32"}, {"name": "StatefulPartitionedCall/cnn_forecast_ensemble/sequential/inception_v3/conv2d_65/Conv2D_weights", "shape": [7, 1, 192, 192], "dtype": "float32"}, {"name": "StatefulPartitionedCall/cnn_forecast_ensemble/sequential/inception_v3/conv2d_13/Conv2D_weights", "shape": [1, 1, 256, 48], "dtype": "float32"}, {"name": "StatefulPartitionedCall/cnn_forecast_ensemble/sequential/inception_v3/conv2d_13/Conv2D_bn_offset", "shape": [48], "dtype": "float32"}, {"name": "StatefulPartitionedCall/cnn_forecast_ensemble/sequential/inception_v3/conv2d_65/Conv2D_bn_offset", "shape": [192], "dtype": "float32"}, {"name": "StatefulPartitionedCall/cnn_forecast_ensemble/sequential/inception_v3/conv2d_15/Conv2D_weights", "shape": [1, 1, 256, 64], "dtype": "float32"}, {"name": "StatefulPartitionedCall/cnn_forecast_ensemble/sequential/inception_v3/conv2d_85/Conv2D_weights", "shape": [1, 1, 2048, 320], "dtype": "float32"}, {"name": "StatefulPartitionedCall/cnn_forecast_ensemble/sequential/inception_v3/conv2d_15/Conv2D_bn_offset", "shape": [64], "dtype": "float32"}, {"name": "StatefulPartitionedCall/cnn_forecast_ensemble/sequential/inception_v3/conv2d_18/Conv2D_weights", "shape": [1, 1, 256, 64], "dtype": "float32"}, {"name": "StatefulPartitionedCall/cnn_forecast_ensemble/sequential/inception_v3/conv2d_63/Conv2D_weights", "shape": [7, 1, 192, 192], "dtype": "float32"}, {"name": "StatefulPartitionedCall/cnn_forecast_ensemble/sequential/inception_v3/conv2d_18/Conv2D_bn_offset", "shape": [64], "dtype": "float32"}, {"name": "StatefulPartitionedCall/cnn_forecast_ensemble/sequential/inception_v3/conv2d_14/Conv2D_weights", "shape": [5, 5, 48, 64], "dtype": "float32"}, {"name": "StatefulPartitionedCall/cnn_forecast_ensemble/sequential/inception_v3/conv2d_63/Conv2D_bn_offset", "shape": [192], "dtype": "float32"}, {"name": "StatefulPartitionedCall/cnn_forecast_ensemble/sequential/inception_v3/conv2d_14/Conv2D_bn_offset", "shape": [64], "dtype": "float32"}, {"name": "StatefulPartitionedCall/cnn_forecast_ensemble/sequential/inception_v3/conv2d_85/Conv2D_bn_offset", "shape": [320], "dtype": "float32"}, {"name": "StatefulPartitionedCall/cnn_forecast_ensemble/sequential/inception_v3/conv2d_16/Conv2D_weights", "shape": [3, 3, 64, 96], "dtype": "float32"}, {"name": "StatefulPartitionedCall/cnn_forecast_ensemble/sequential/inception_v3/conv2d_16/Conv2D_bn_offset", "shape": [96], "dtype": "float32"}, {"name": "StatefulPartitionedCall/cnn_forecast_ensemble/sequential/inception_v3/conv2d_66/Conv2D_weights", "shape": [1, 7, 192, 192], "dtype": "float32"}, {"name": "StatefulPartitionedCall/cnn_forecast_ensemble/sequential/inception_v3/conv2d_17/Conv2D_weights", "shape": [3, 3, 96, 96], "dtype": "float32"}, {"name": "StatefulPartitionedCall/cnn_forecast_ensemble/sequential/inception_v3/conv2d_92/Conv2D_weights", "shape": [3, 1, 384, 384], "dtype": "float32"}, {"name": "StatefulPartitionedCall/cnn_forecast_ensemble/sequential/inception_v3/conv2d_17/Conv2D_bn_offset", "shape": [96], "dtype": "float32"}, {"name": "StatefulPartitionedCall/cnn_forecast_ensemble/sequential/inception_v3/conv2d_66/Conv2D_bn_offset", "shape": [192], "dtype": "float32"}, {"name": "StatefulPartitionedCall/cnn_forecast_ensemble/sequential/inception_v3/conv2d_19/Conv2D_weights", "shape": [1, 1, 288, 64], "dtype": "float32"}, {"name": "StatefulPartitionedCall/cnn_forecast_ensemble/sequential/inception_v3/conv2d_19/Conv2D_bn_offset", "shape": [64], "dtype": "float32"}, {"name": "StatefulPartitionedCall/cnn_forecast_ensemble/sequential/inception_v3/conv2d_20/Conv2D_weights", "shape": [1, 1, 288, 48], "dtype": "float32"}, {"name": "StatefulPartitionedCall/cnn_forecast_ensemble/sequential/inception_v3/conv2d_67/Conv2D_weights", "shape": [7, 1, 192, 192], "dtype": "float32"}, {"name": "StatefulPartitionedCall/cnn_forecast_ensemble/sequential/inception_v3/conv2d_20/Conv2D_bn_offset", "shape": [48], "dtype": "float32"}, {"name": "StatefulPartitionedCall/cnn_forecast_ensemble/sequential/inception_v3/conv2d_86/Conv2D_weights", "shape": [1, 1, 2048, 384], "dtype": "float32"}, {"name": "StatefulPartitionedCall/cnn_forecast_ensemble/sequential/inception_v3/conv2d_22/Conv2D_weights", "shape": [1, 1, 288, 64], "dtype": "float32"}, {"name": "StatefulPartitionedCall/cnn_forecast_ensemble/sequential/inception_v3/conv2d_67/Conv2D_bn_offset", "shape": [192], "dtype": "float32"}, {"name": "StatefulPartitionedCall/cnn_forecast_ensemble/sequential/inception_v3/conv2d_22/Conv2D_bn_offset", "shape": [64], "dtype": "float32"}, {"name": "StatefulPartitionedCall/cnn_forecast_ensemble/sequential/inception_v3/conv2d_25/Conv2D_weights", "shape": [1, 1, 288, 64], "dtype": "float32"}, {"name": "StatefulPartitionedCall/cnn_forecast_ensemble/sequential/inception_v3/conv2d_25/Conv2D_bn_offset", "shape": [64], "dtype": "float32"}, {"name": "StatefulPartitionedCall/cnn_forecast_ensemble/sequential/inception_v3/conv2d_68/Conv2D_weights", "shape": [1, 7, 192, 192], "dtype": "float32"}, {"name": "StatefulPartitionedCall/cnn_forecast_ensemble/sequential/inception_v3/conv2d_21/Conv2D_weights", "shape": [5, 5, 48, 64], "dtype": "float32"}, {"name": "StatefulPartitionedCall/cnn_forecast_ensemble/sequential/inception_v3/conv2d_86/Conv2D_bn_offset", "shape": [384], "dtype": "float32"}, {"name": "StatefulPartitionedCall/cnn_forecast_ensemble/sequential/inception_v3/conv2d_21/Conv2D_bn_offset", "shape": [64], "dtype": "float32"}, {"name": "StatefulPartitionedCall/cnn_forecast_ensemble/sequential/inception_v3/conv2d_68/Conv2D_bn_offset", "shape": [192], "dtype": "float32"}, {"name": "StatefulPartitionedCall/cnn_forecast_ensemble/sequential/inception_v3/conv2d_23/Conv2D_weights", "shape": [3, 3, 64, 96], "dtype": "float32"}, {"name": "StatefulPartitionedCall/cnn_forecast_ensemble/sequential/inception_v3/conv2d_92/Conv2D_bn_offset", "shape": [384], "dtype": "float32"}, {"name": "StatefulPartitionedCall/cnn_forecast_ensemble/sequential/inception_v3/conv2d_23/Conv2D_bn_offset", "shape": [96], "dtype": "float32"}, {"name": "StatefulPartitionedCall/cnn_forecast_ensemble/sequential/inception_v3/conv2d_24/Conv2D_weights", "shape": [3, 3, 96, 96], "dtype": "float32"}, {"name": "StatefulPartitionedCall/cnn_forecast_ensemble/sequential/inception_v3/conv2d_24/Conv2D_bn_offset", "shape": [96], "dtype": "float32"}, {"name": "StatefulPartitionedCall/cnn_forecast_ensemble/sequential/inception_v3/conv2d_26/Conv2D_weights", "shape": [3, 3, 288, 384], "dtype": "float32"}, {"name": "StatefulPartitionedCall/cnn_forecast_ensemble/sequential/inception_v3/conv2d_70/Conv2D_weights", "shape": [1, 1, 768, 192], "dtype": "float32"}, {"name": "StatefulPartitionedCall/cnn_forecast_ensemble/sequential/inception_v3/conv2d_26/Conv2D_bn_offset", "shape": [384], "dtype": "float32"}, {"name": "StatefulPartitionedCall/cnn_forecast_ensemble/sequential/inception_v3/conv2d_27/Conv2D_weights", "shape": [1, 1, 288, 64], "dtype": "float32"}, {"name": "StatefulPartitionedCall/cnn_forecast_ensemble/sequential/inception_v3/conv2d_70/Conv2D_bn_offset", "shape": [192], "dtype": "float32"}, {"name": "StatefulPartitionedCall/cnn_forecast_ensemble/sequential/inception_v3/conv2d_27/Conv2D_bn_offset", "shape": [64], "dtype": "float32"}, {"name": "StatefulPartitionedCall/cnn_forecast_ensemble/sequential/inception_v3/conv2d_89/Conv2D_weights", "shape": [1, 1, 2048, 448], "dtype": "float32"}, {"name": "StatefulPartitionedCall/cnn_forecast_ensemble/sequential/inception_v3/conv2d_28/Conv2D_weights", "shape": [3, 3, 64, 96], "dtype": "float32"}, {"name": "StatefulPartitionedCall/cnn_forecast_ensemble/sequential/inception_v3/conv2d_28/Conv2D_bn_offset", "shape": [96], "dtype": "float32"}, {"name": "StatefulPartitionedCall/cnn_forecast_ensemble/sequential/inception_v3/conv2d_72/Conv2D_weights", "shape": [1, 1, 768, 192], "dtype": "float32"}, {"name": "StatefulPartitionedCall/cnn_forecast_ensemble/sequential/inception_v3/conv2d_29/Conv2D_weights", "shape": [3, 3, 96, 96], "dtype": "float32"}, {"name": "StatefulPartitionedCall/cnn_forecast_ensemble/sequential/inception_v3/conv2d_29/Conv2D_bn_offset", "shape": [96], "dtype": "float32"}, {"name": "StatefulPartitionedCall/cnn_forecast_ensemble/sequential/inception_v3/conv2d_72/Conv2D_bn_offset", "shape": [192], "dtype": "float32"}, {"name": "StatefulPartitionedCall/cnn_forecast_ensemble/sequential/inception_v3/conv2d_30/Conv2D_weights", "shape": [1, 1, 768, 192], "dtype": "float32"}, {"name": "StatefulPartitionedCall/cnn_forecast_ensemble/sequential/inception_v3/conv2d_89/Conv2D_bn_offset", "shape": [448], "dtype": "float32"}, {"name": "StatefulPartitionedCall/cnn_forecast_ensemble/sequential/inception_v3/conv2d_30/Conv2D_bn_offset", "shape": [192], "dtype": "float32"}, {"name": "StatefulPartitionedCall/cnn_forecast_ensemble/sequential/inception_v3/conv2d_31/Conv2D_weights", "shape": [1, 1, 768, 128], "dtype": "float32"}, {"name": "StatefulPartitionedCall/cnn_forecast_ensemble/sequential/inception_v3/conv2d_71/Conv2D_weights", "shape": [3, 3, 192, 320], "dtype": "float32"}, {"name": "StatefulPartitionedCall/cnn_forecast_ensemble/sequential/inception_v3/conv2d_31/Conv2D_bn_offset", "shape": [128], "dtype": "float32"}, {"name": "StatefulPartitionedCall/cnn_forecast_ensemble/sequential/inception_v3/conv2d_34/Conv2D_weights", "shape": [1, 1, 768, 128], "dtype": "float32"}, {"name": "StatefulPartitionedCall/cnn_forecast_ensemble/sequential/inception_v3/conv2d_71/Conv2D_bn_offset", "shape": [320], "dtype": "float32"}, {"name": "StatefulPartitionedCall/cnn_forecast_ensemble/sequential/inception_v3/conv2d_34/Conv2D_bn_offset", "shape": [128], "dtype": "float32"}, {"name": "StatefulPartitionedCall/cnn_forecast_ensemble/sequential/inception_v3/conv2d_39/Conv2D_weights", "shape": [1, 1, 768, 192], "dtype": "float32"}, {"name": "StatefulPartitionedCall/cnn_forecast_ensemble/sequential/inception_v3/conv2d_39/Conv2D_bn_offset", "shape": [192], "dtype": "float32"}, {"name": "StatefulPartitionedCall/cnn_forecast_ensemble/sequential/inception_v3/conv2d_73/Conv2D_weights", "shape": [1, 7, 192, 192], "dtype": "float32"}, {"name": "StatefulPartitionedCall/cnn_forecast_ensemble/sequential/inception_v3/conv2d_32/Conv2D_weights", "shape": [1, 7, 128, 128], "dtype": "float32"}, {"name": "StatefulPartitionedCall/cnn_forecast_ensemble/sequential/inception_v3/conv2d_93/Conv2D_weights", "shape": [1, 1, 2048, 192], "dtype": "float32"}, {"name": "StatefulPartitionedCall/cnn_forecast_ensemble/sequential/inception_v3/conv2d_32/Conv2D_bn_offset", "shape": [128], "dtype": "float32"}, {"name": "StatefulPartitionedCall/cnn_forecast_ensemble/sequential/inception_v3/conv2d_73/Conv2D_bn_offset", "shape": [192], "dtype": "float32"}, {"name": "StatefulPartitionedCall/cnn_forecast_ensemble/sequential/inception_v3/conv2d_35/Conv2D_weights", "shape": [7, 1, 128, 128], "dtype": "float32"}, {"name": "StatefulPartitionedCall/cnn_forecast_ensemble/sequential/inception_v3/conv2d_35/Conv2D_bn_offset", "shape": [128], "dtype": "float32"}, {"name": "StatefulPartitionedCall/cnn_forecast_ensemble/sequential/inception_v3/conv2d_33/Conv2D_weights", "shape": [7, 1, 128, 192], "dtype": "float32"}, {"name": "StatefulPartitionedCall/cnn_forecast_ensemble/sequential/inception_v3/conv2d_74/Conv2D_weights", "shape": [7, 1, 192, 192], "dtype": "float32"}, {"name": "StatefulPartitionedCall/cnn_forecast_ensemble/sequential/inception_v3/conv2d_33/Conv2D_bn_offset", "shape": [192], "dtype": "float32"}, {"name": "StatefulPartitionedCall/cnn_forecast_ensemble/sequential/inception_v3/conv2d_93/Conv2D_bn_offset", "shape": [192], "dtype": "float32"}, {"name": "StatefulPartitionedCall/cnn_forecast_ensemble/sequential/inception_v3/conv2d_36/Conv2D_weights", "shape": [1, 7, 128, 128], "dtype": "float32"}, {"name": "StatefulPartitionedCall/cnn_forecast_ensemble/sequential/inception_v3/conv2d_74/Conv2D_bn_offset", "shape": [192], "dtype": "float32"}, {"name": "StatefulPartitionedCall/cnn_forecast_ensemble/sequential/inception_v3/conv2d_36/Conv2D_bn_offset", "shape": [128], "dtype": "float32"}, {"name": "StatefulPartitionedCall/cnn_forecast_ensemble/sequential/inception_v3/conv2d_37/Conv2D_weights", "shape": [7, 1, 128, 128], "dtype": "float32"}, {"name": "StatefulPartitionedCall/cnn_forecast_ensemble/sequential/inception_v3/conv2d_37/Conv2D_bn_offset", "shape": [128], "dtype": "float32"}, {"name": "StatefulPartitionedCall/cnn_forecast_ensemble/sequential/inception_v3/conv2d_75/Conv2D_weights", "shape": [3, 3, 192, 192], "dtype": "float32"}, {"name": "StatefulPartitionedCall/cnn_forecast_ensemble/sequential/inception_v3/conv2d_38/Conv2D_weights", "shape": [1, 7, 128, 192], "dtype": "float32"}, {"name": "StatefulPartitionedCall/cnn_forecast_ensemble/sequential/inception_v3/conv2d_38/Conv2D_bn_offset", "shape": [192], "dtype": "float32"}, {"name": "StatefulPartitionedCall/cnn_forecast_ensemble/sequential/inception_v3/conv2d_75/Conv2D_bn_offset", "shape": [192], "dtype": "float32"}, {"name": "StatefulPartitionedCall/cnn_forecast_ensemble/sequential/inception_v3/conv2d_40/Conv2D_weights", "shape": [1, 1, 768, 192], "dtype": "float32"}, {"name": "StatefulPartitionedCall/cnn_forecast_ensemble/sequential/inception_v3/conv2d_87/Conv2D_weights", "shape": [1, 3, 384, 384], "dtype": "float32"}, {"name": "StatefulPartitionedCall/cnn_forecast_ensemble/sequential/inception_v3/conv2d_40/Conv2D_bn_offset", "shape": [192], "dtype": "float32"}, {"name": "StatefulPartitionedCall/cnn_forecast_ensemble/sequential/inception_v3/conv2d_41/Conv2D_weights", "shape": [1, 1, 768, 160], "dtype": "float32"}, {"name": "StatefulPartitionedCall/cnn_forecast_ensemble/sequential/inception_v3/conv2d_41/Conv2D_bn_offset", "shape": [160], "dtype": "float32"}, {"name": "StatefulPartitionedCall/cnn_forecast_ensemble/sequential/inception_v3/conv2d_44/Conv2D_weights", "shape": [1, 1, 768, 160], "dtype": "float32"}, {"name": "StatefulPartitionedCall/cnn_forecast_ensemble/sequential/inception_v3/conv2d_76/Conv2D_weights", "shape": [1, 1, 1280, 320], "dtype": "float32"}, {"name": "StatefulPartitionedCall/cnn_forecast_ensemble/sequential/inception_v3/conv2d_44/Conv2D_bn_offset", "shape": [160], "dtype": "float32"}, {"name": "StatefulPartitionedCall/cnn_forecast_ensemble/sequential/inception_v3/conv2d_49/Conv2D_weights", "shape": [1, 1, 768, 192], "dtype": "float32"}, {"name": "StatefulPartitionedCall/cnn_forecast_ensemble/sequential/inception_v3/conv2d_76/Conv2D_bn_offset", "shape": [320], "dtype": "float32"}, {"name": "StatefulPartitionedCall/cnn_forecast_ensemble/sequential/inception_v3/conv2d_49/Conv2D_bn_offset", "shape": [192], "dtype": "float32"}, {"name": "StatefulPartitionedCall/cnn_forecast_ensemble/sequential/inception_v3/conv2d_87/Conv2D_bn_offset", "shape": [384], "dtype": "float32"}, {"name": "StatefulPartitionedCall/cnn_forecast_ensemble/sequential/inception_v3/conv2d_42/Conv2D_weights", "shape": [1, 7, 160, 160], "dtype": "float32"}, {"name": "StatefulPartitionedCall/cnn_forecast_ensemble/sequential/inception_v3/conv2d_42/Conv2D_bn_offset", "shape": [160], "dtype": "float32"}, {"name": "StatefulPartitionedCall/cnn_forecast_ensemble/sequential/inception_v3/conv2d_77/Conv2D_weights", "shape": [1, 1, 1280, 384], "dtype": "float32"}, {"name": "StatefulPartitionedCall/cnn_forecast_ensemble/sequential/inception_v3/conv2d_45/Conv2D_weights", "shape": [7, 1, 160, 160], "dtype": "float32"}, {"name": "StatefulPartitionedCall/cnn_forecast_ensemble/sequential/inception_v3/conv2d_45/Conv2D_bn_offset", "shape": [160], "dtype": "float32"}, {"name": "StatefulPartitionedCall/cnn_forecast_ensemble/sequential/inception_v3/conv2d_77/Conv2D_bn_offset", "shape": [384], "dtype": "float32"}, {"name": "StatefulPartitionedCall/cnn_forecast_ensemble/sequential/inception_v3/conv2d_43/Conv2D_weights", "shape": [7, 1, 160, 192], "dtype": "float32"}, {"name": "StatefulPartitionedCall/cnn_forecast_ensemble/sequential/inception_v3/conv2d_43/Conv2D_bn_offset", "shape": [192], "dtype": "float32"}, {"name": "StatefulPartitionedCall/cnn_forecast_ensemble/sequential/inception_v3/conv2d_46/Conv2D_weights", "shape": [1, 7, 160, 160], "dtype": "float32"}, {"name": "StatefulPartitionedCall/cnn_forecast_ensemble/sequential/inception_v3/conv2d_80/Conv2D_weights", "shape": [1, 1, 1280, 448], "dtype": "float32"}, {"name": "StatefulPartitionedCall/cnn_forecast_ensemble/sequential/inception_v3/conv2d_46/Conv2D_bn_offset", "shape": [160], "dtype": "float32"}, {"name": "StatefulPartitionedCall/cnn_forecast_ensemble/sequential/inception_v3/conv2d_88/Conv2D_weights", "shape": [3, 1, 384, 384], "dtype": "float32"}, {"name": "StatefulPartitionedCall/cnn_forecast_ensemble/sequential/inception_v3/conv2d_47/Conv2D_weights", "shape": [7, 1, 160, 160], "dtype": "float32"}, {"name": "StatefulPartitionedCall/cnn_forecast_ensemble/sequential/inception_v3/conv2d_80/Conv2D_bn_offset", "shape": [448], "dtype": "float32"}, {"name": "StatefulPartitionedCall/cnn_forecast_ensemble/sequential/inception_v3/conv2d_47/Conv2D_bn_offset", "shape": [160], "dtype": "float32"}, {"name": "StatefulPartitionedCall/cnn_forecast_ensemble/sequential/inception_v3/conv2d_48/Conv2D_weights", "shape": [1, 7, 160, 192], "dtype": "float32"}, {"name": "StatefulPartitionedCall/cnn_forecast_ensemble/sequential/inception_v3/conv2d_48/Conv2D_bn_offset", "shape": [192], "dtype": "float32"}, {"name": "StatefulPartitionedCall/cnn_forecast_ensemble/sequential/inception_v3/conv2d_84/Conv2D_weights", "shape": [1, 1, 1280, 192], "dtype": "float32"}, {"name": "StatefulPartitionedCall/cnn_forecast_ensemble/sequential/inception_v3/conv2d_50/Conv2D_weights", "shape": [1, 1, 768, 192], "dtype": "float32"}, {"name": "StatefulPartitionedCall/cnn_forecast_ensemble/sequential/inception_v3/conv2d_88/Conv2D_bn_offset", "shape": [384], "dtype": "float32"}, {"name": "StatefulPartitionedCall/cnn_forecast_ensemble/sequential/inception_v3/conv2d_50/Conv2D_bn_offset", "shape": [192], "dtype": "float32"}, {"name": "StatefulPartitionedCall/cnn_forecast_ensemble/sequential/inception_v3/conv2d_84/Conv2D_bn_offset", "shape": [192], "dtype": "float32"}, {"name": "StatefulPartitionedCall/cnn_forecast_ensemble/sequential/inception_v3/conv2d_51/Conv2D_weights", "shape": [1, 1, 768, 160], "dtype": "float32"}, {"name": "StatefulPartitionedCall/cnn_forecast_ensemble/sequential/inception_v3/conv2d_51/Conv2D_bn_offset", "shape": [160], "dtype": "float32"}, {"name": "StatefulPartitionedCall/cnn_forecast_ensemble/sequential/inception_v3/conv2d_54/Conv2D_weights", "shape": [1, 1, 768, 160], "dtype": "float32"}, {"name": "StatefulPartitionedCall/cnn_forecast_ensemble/sequential/inception_v3/conv2d_78/Conv2D_weights", "shape": [1, 3, 384, 384], "dtype": "float32"}, {"name": "StatefulPartitionedCall/cnn_forecast_ensemble/sequential/inception_v3/conv2d_54/Conv2D_bn_offset", "shape": [160], "dtype": "float32"}, {"name": "StatefulPartitionedCall/cnn_forecast_ensemble/sequential/inception_v3/conv2d_59/Conv2D_weights", "shape": [1, 1, 768, 192], "dtype": "float32"}, {"name": "StatefulPartitionedCall/cnn_forecast_ensemble/sequential/inception_v3/conv2d_78/Conv2D_bn_offset", "shape": [384], "dtype": "float32"}, {"name": "StatefulPartitionedCall/cnn_forecast_ensemble/sequential/inception_v3/conv2d_59/Conv2D_bn_offset", "shape": [192], "dtype": "float32"}, {"name": "StatefulPartitionedCall/cnn_forecast_ensemble/sequential/inception_v3/conv2d_90/Conv2D_weights", "shape": [3, 3, 448, 384], "dtype": "float32"}, {"name": "StatefulPartitionedCall/cnn_forecast_ensemble/sequential/inception_v3/conv2d_52/Conv2D_weights", "shape": [1, 7, 160, 160], "dtype": "float32"}, {"name": "StatefulPartitionedCall/cnn_forecast_ensemble/sequential/inception_v3/conv2d_52/Conv2D_bn_offset", "shape": [160], "dtype": "float32"}, {"name": "StatefulPartitionedCall/cnn_forecast_ensemble/sequential/inception_v3/conv2d_79/Conv2D_weights", "shape": [3, 1, 384, 384], "dtype": "float32"}, {"name": "StatefulPartitionedCall/cnn_forecast_ensemble/sequential/inception_v3/conv2d_55/Conv2D_weights", "shape": [7, 1, 160, 160], "dtype": "float32"}, {"name": "StatefulPartitionedCall/cnn_forecast_ensemble/sequential/inception_v3/conv2d_55/Conv2D_bn_offset", "shape": [160], "dtype": "float32"}, {"name": "StatefulPartitionedCall/cnn_forecast_ensemble/sequential/inception_v3/conv2d_79/Conv2D_bn_offset", "shape": [384], "dtype": "float32"}, {"name": "StatefulPartitionedCall/cnn_forecast_ensemble/sequential/inception_v3/conv2d_53/Conv2D_weights", "shape": [7, 1, 160, 192], "dtype": "float32"}, {"name": "StatefulPartitionedCall/cnn_forecast_ensemble/sequential/inception_v3/conv2d_90/Conv2D_bn_offset", "shape": [384], "dtype": "float32"}, {"name": "StatefulPartitionedCall/cnn_forecast_ensemble/sequential/inception_v3/conv2d_53/Conv2D_bn_offset", "shape": [192], "dtype": "float32"}, {"name": "StatefulPartitionedCall/cnn_forecast_ensemble/sequential/inception_v3/conv2d_56/Conv2D_weights", "shape": [1, 7, 160, 160], "dtype": "float32"}, {"name": "StatefulPartitionedCall/cnn_forecast_ensemble/sequential/inception_v3/conv2d_81/Conv2D_weights", "shape": [3, 3, 448, 384], "dtype": "float32"}, {"name": "StatefulPartitionedCall/cnn_forecast_ensemble/sequential/inception_v3/conv2d_56/Conv2D_bn_offset", "shape": [160], "dtype": "float32"}, {"name": "StatefulPartitionedCall/cnn_forecast_ensemble/model_12/bidirectional_6/forward_lstm_6/PartitionedCall/while/body/_485/while/split/split_dim", "shape": [], "dtype": "int32"}, {"name": "StatefulPartitionedCall/cnn_forecast_ensemble/model_12/bidirectional_6/forward_lstm_6/PartitionedCall/while/body/_485/while/TensorArrayV2Read/TensorListGetItem/element_shape", "shape": [2], "dtype": "int32"}, {"name": "StatefulPartitionedCall/cnn_forecast_ensemble/model_12/bidirectional_6/forward_lstm_6/PartitionedCall/while/body/_485/while/add_2/y", "shape": [], "dtype": "int32"}, {"name": "StatefulPartitionedCall/cnn_forecast_ensemble/model_12/bidirectional_6/forward_lstm_6/PartitionedCall/while/body/_485/while/add_3/y", "shape": [], "dtype": "int32"}, {"name": "StatefulPartitionedCall/cnn_forecast_ensemble/model_12/bidirectional_6/backward_lstm_6/PartitionedCall/while/body/_545/while/split/split_dim", "shape": [], "dtype": "int32"}, {"name": "StatefulPartitionedCall/cnn_forecast_ensemble/model_12/bidirectional_6/backward_lstm_6/PartitionedCall/while/body/_545/while/TensorArrayV2Read/TensorListGetItem/element_shape", "shape": [2], "dtype": "int32"}, {"name": "StatefulPartitionedCall/cnn_forecast_ensemble/model_12/bidirectional_6/backward_lstm_6/PartitionedCall/while/body/_545/while/add_2/y", "shape": [], "dtype": "int32"}, {"name": "StatefulPartitionedCall/cnn_forecast_ensemble/model_12/bidirectional_6/backward_lstm_6/PartitionedCall/while/body/_545/while/add_3/y", "shape": [], "dtype": "int32"}, {"name": "StatefulPartitionedCall/cnn_forecast_ensemble/model_12/bidirectional_7/forward_lstm_7/PartitionedCall/while/body/_605/while/TensorArrayV2Write/TensorListSetItem/index", "shape": [], "dtype": "int32"}, {"name": "StatefulPartitionedCall/cnn_forecast_ensemble/model_12/bidirectional_7/forward_lstm_7/PartitionedCall/while/body/_605/while/split/split_dim", "shape": [], "dtype": "int32"}, {"name": "StatefulPartitionedCall/cnn_forecast_ensemble/model_12/bidirectional_7/forward_lstm_7/PartitionedCall/while/body/_605/while/TensorArrayV2Read/TensorListGetItem/element_shape", "shape": [2], "dtype": "int32"}, {"name": "StatefulPartitionedCall/cnn_forecast_ensemble/model_12/bidirectional_7/forward_lstm_7/PartitionedCall/while/body/_605/while/add_2/y", "shape": [], "dtype": "int32"}, {"name": "StatefulPartitionedCall/cnn_forecast_ensemble/model_12/bidirectional_7/forward_lstm_7/PartitionedCall/while/body/_605/while/add_3/y", "shape": [], "dtype": "int32"}, {"name": "StatefulPartitionedCall/cnn_forecast_ensemble/model_12/bidirectional_7/backward_lstm_7/PartitionedCall/while/body/_665/while/TensorArrayV2Write/TensorListSetItem/index", "shape": [], "dtype": "int32"}, {"name": "StatefulPartitionedCall/cnn_forecast_ensemble/model_12/bidirectional_7/backward_lstm_7/PartitionedCall/while/body/_665/while/split/split_dim", "shape": [], "dtype": "int32"}, {"name": "StatefulPartitionedCall/cnn_forecast_ensemble/model_12/bidirectional_7/backward_lstm_7/PartitionedCall/while/body/_665/while/TensorArrayV2Read/TensorListGetItem/element_shape", "shape": [2], "dtype": "int32"}, {"name": "StatefulPartitionedCall/cnn_forecast_ensemble/model_12/bidirectional_7/backward_lstm_7/PartitionedCall/while/body/_665/while/add_2/y", "shape": [], "dtype": "int32"}, {"name": "StatefulPartitionedCall/cnn_forecast_ensemble/model_12/bidirectional_7/backward_lstm_7/PartitionedCall/while/body/_665/while/add_3/y", "shape": [], "dtype": "int32"}]}]}